fingat_tranformer_model.pth (torch, 34181 bytes, 8 tensors)

fusion.fusion_layer.weight f4 [64, 48]
0	0xbd2c8134	-0.042115405
1	0x3dd66602	0.10468675
2	0x3c2c8907	0.010530717
3	0xbdac8364	-0.08423498
4	0x3cb2edb1	0.021841856
5	0xbd5606ec	-0.052252695
6	0xbe0e2696	-0.13881907
7	0x3e08b12a	0.13348833
8	0x3d53535b	0.051593166
9	0xbd0fedfb	-0.035139065
10	0xbbc404ac	-0.0059820022
11	0x3e104738	0.14089668
12	0x3d6bc227	0.057558205
13	0xbd7840df	-0.06060874
14	0xbe062ea1	-0.13103725
15	0x3da6c8b7	0.08143752
16	0x3e2ff142	0.17181876
17	0x3b8c4895	0.0042811134
18	0x3e6068c6	0.21914968
19	0x3d7aaf77	0.061202493
20	0xbb7c2ebe	-0.003848001
21	0x3d05358a	0.032521762
22	0xbe10b763	-0.14132456
23	0xbe317078	-0.1732806
24	0xbe377ddf	-0.1791911
25	0x3dfa2862	0.12214734
26	0xbdf4e468	-0.119576275
27	0x3df2a5aa	0.11848004
28	0x3dcab999	0.09898681
29	0xbe16f891	-0.14743258
30	0x3b2c26eb	0.0026268314
31	0x3d078a84	0.033091083
32	0x3e2cf32e	0.1688964
33	0x3e2a3ab0	0.1662395
34	0x38827559	6.220741e-05
35	0xbe114f78	-0.14190471
36	0x3c945082	0.018104795
37	0xbccaf428	-0.024774626
38	0xbbe68a0b	-0.007035499
39	0x3dee651b	0.11640378
40	0xbdf83071	-0.121186145
41	0xbce48329	-0.027894573
42	0xbdb935ba	-0.09043451
43	0xbe452035	-0.19250567
44	0x3df90982	0.121600166
45	0xbe0689d1	-0.1313851
46	0xbc8bc433	-0.017061329
47	0x3ccef42f	0.02526292
48	0xbd00ddb3	-0.03146143
49	0x3c67d3d3	0.014149624
50	0x3e1408c9	0.14456476
51	0xbdb88532	-0.0900978
52	0xbd239aca	-0.03994254
53	0xbe186d86	-0.1488553
54	0xbdb6043a	-0.08887525
55	0x3d937ec6	0.072019145
56	0xbda92d72	-0.08260621
57	0xbd49c8d2	-0.049263783
58	0x3d2d5071	0.042313043
59	0x3d9946c6	0.07484202
60	0xbdd401ee	-0.103519306
61	0x3d4f9630	0.05068034
62	0x3bedd402	0.0072579393
63	0xbd50eab6	-0.051005088
64	0x3c8aa8ae	0.016926136
65	0x3dbcb30b	0.09213837
66	0x3dea35b9	0.11436028
67	0xbb80cb1c	-0.0039304625
68	0xbe0f22ea	-0.13978162
69	0xbd1dbe15	-0.038511354
70	0x3cb51715	0.022105733
71	0x3d8fc031	0.070190795
72	0xbc0bfe17	-0.008544466
73	0xbd87cbbc	-0.06630656
74	0x3be2e0ee	0.0069237864
75	0x3c1c03a7	0.009522355
76	0x3e21ae73	0.15789203
77	0x3b9e9028	0.004838962
78	0xbd05bf5b	-0.032653194
79	0xbc5f3505	-0.013623481
80	0xbde04e76	-0.10952465
81	0xbd883043	-0.0664983
82	0x3d6ea253	0.058260273
83	0xbd62aafe	-0.055338852
84	0xbdf7ee8b	-0.12106045
85	0xbde057de	-0.10954259
86	0x3c83affe	0.01607513
87	0xbd5dc9a5	-0.05414738
88	0xbd3f8210	-0.046754897
89	0x3dbe30a0	0.09286618
90	0xbcf6af1b	-0.030112794
91	0xbdf2bbfd	-0.11852262
92	0x3df08f2b	0.11746057
93	0x3bc5f56e	0.0060412204
94	0x3de29f01	0.11065484
95	0xbdaf17b6	-0.085494444
96	0x3dcb3ded	0.09923921
97	0x3e31d46e	0.17366192
98	0x3dc4638c	0.095892996
99	0x3d5ff662	0.05467833
100	0x3dc76927	0.09736853
101	0xbdab7df9	-0.08373637
102	0x3e931de4	0.28733742
103	0xbcba2cd2	-0.02272645
104	0xbdbde9fd	-0.09273145
105	0xbd93a177	-0.07208531
106	0xbda62c8d	-0.08113966
107	0x3ca6092d	0.020268047
108	0xbd416a2a	-0.047220387
109	0xbdbbdd6d	-0.09173093
110	0x3e0becbb	0.13664524
111	0xbcf9dca8	-0.030500725
112	0x3dc1b727	0.09458762
113	0x3be1eefb	0.006894944
114	0x3e406e68	0.18792117
115	0xbcfe6e25	-0.03105838
116	0xbd16eed8	-0.036848873
117	0xbe1c43b9	-0.15260209
118	0x3e04ae2c	0.12957066
119	0xbe296884	-0.16543776
120	0x3d624c09	0.055248294
121	0x3e1052b1	0.14094044
122	0x3d928691	0.07154573
123	0x3d98ba30	0.074573874
124	0xbd3ced01	-0.046124462
125	0x3e0e78f6	0.1391333
126	0xbdc2c877	-0.09510892
127	0x3bb8c388	0.0056385435
128	0x3d8d1c40	0.06890154
129	0x3d624fe0	0.055251956
130	0x3d661b37	0.056178298
131	0x3d408bff	0.04700851
132	0x3e2dcaa7	0.16971837
133	0xbd6a9b2b	-0.057276886
134	0xbd75a262	-0.059969313
135	0x3e07597f	0.13217734
136	0xbe7efaa0	-0.24900293
137	0xbd649573	-0.05580659
138	0xbe0858c4	-0.13315111
139	0xbe4b7627	-0.1986929
140	0x3e5510e6	0.20807227
141	0xbdf17b39	-0.11791081
142	0xbe4919fd	-0.1963882
143	0xbe2158d8	-0.15756547
144	0x3e307045	0.17230327
145	0xbdbc3484	-0.09189704
146	0x3d0f4276	0.03497549
147	0x3db20b5e	0.08693574
148	0x3c656417	0.014000914
149	0x3ce50775	0.027957657
150	0x3d808bd6	0.062766716
151	0x3e1c87f1	0.15286233
152	0x3da24774	0.07923785
153	0xbcfb16d5	-0.030650536
154	0xbdd43196	-0.1036102
155	0x3cafaaa4	0.021443672
156	0x3dc7e60f	0.09760677
157	0xb9a59779	-0.00031584108
158	0xbced9449	-0.029001372
159	0x3a92337b	0.0011154258
160	0x3dd020e6	0.10162525
161	0xbd0ff176	-0.035142384
162	0xbdb464ef	-0.08808314
163	0xbd94b2bd	-0.07260654
164	0xbcdfc0ee	-0.027313676
165	0x3dd77c9f	0.105218165
166	0xbd07a068	-0.03311196
167	0x3dfa59df	0.12224173
168	0x3e0059eb	0.12534301
169	0x3c8ef8a0	0.017452538
170	0xbdd77b75	-0.105215944
171	0x3dbe6fd1	0.09298671
172	0xbe0ec8b8	-0.13943756
173	0xbde45ec0	-0.11150885
174	0xbdfd27c6	-0.12361102
175	0xbcee2472	-0.029070113
176	0xbd391380	-0.045184612
177	0xbd3777e8	-0.044792086
178	0xbd137f39	-0.03601
179	0x3d54a333	0.05191345
180	0xbe1554b0	-0.14583087
181	0x3d16b2a1	0.036791448
182	0xbaf61cc8	-0.0018776888
183	0x3bb718a2	0.0055876533
184	0x3e162125	0.14661081
185	0xbdfc0bba	-0.12306924
186	0xbd9955dc	-0.074870795
187	0xb9fcd261	-0.0004822193
188	0xbd0c0554	-0.03418477
189	0x3dfd6617	0.12372988
190	0x3b22ba64	0.0024830336
191	0x3ce02175	0.027359704
192	0x3de007a2	0.10938956
193	0x3dbb56c6	0.0914741
194	0x3da25c20	0.07927728
195	0x3e1eb60c	0.15499133
196	0xbd4bc1be	-0.049745314
197	0xbdb4e216	-0.08832185
198	0x3d1c9c38	0.03823492
199	0x3dc1963f	0.09452485
200	0x3dd12bc2	0.10213424
201	0x3e07beb9	0.13256349
202	0x3d4fb34b	0.050708096
203	0x3e0177b7	0.12643324
204	0xbda08d06	-0.07839398
205	0x3dcdc664	0.10047606
206	0x3d8f2d22	0.0699103
207	0xbd6820ad	-0.056671787
208	0x3d47ae76	0.048750363
209	0xbd98aab1	-0.07454432
210	0x3d78294e	0.060586266
211	0x3de8000b	0.11328133
212	0xbb5cab51	-0.0033671448
213	0xbdfe8b0f	-0.12428867
214	0x3dcd7291	0.100316174
215	0x3dc80dfe	0.09768294
216	0x3d25e031	0.04049701
217	0xbd0446f6	-0.032294236
218	0x3d3476d0	0.04405862
219	0x3d84ab35	0.06477968
220	0xbdf2b60f	-0.11851131
221	0x3b80c2c5	0.0039294683
222	0xbd973c6c	-0.073845714
223	0x3d02bad5	0.03191646
224	0x3d40e767	0.047095682
225	0x3d0ac099	0.03387508
226	0x3ca245f7	0.019808752
227	0x3d08f5cf	0.033437546
228	0xbd7590ed	-0.059952665
229	0xbd7a4cae	-0.061108284
230	0x3c63900b	0.013889323
231	0x3d856f5e	0.06515382
232	0x3d96eba4	0.07369164
233	0xbd89b2a7	-0.06723528
234	0x3e21882d	0.15774603
235	0xbdd0e518	-0.10199946
236	0x3d87eccb	0.066369615
237	0xbd27d9a0	-0.040979028
238	0xbd9c36d2	-0.07627644
239	0x3d613e4f	0.054991063
240	0xbdb71753	-0.089399956
241	0xbdc7038b	-0.09717473
242	0x3c83e26f	0.016099183
243	0x3c985221	0.01859385
244	0x3e128fc3	0.14312653
245	0x3d304e44	0.04304339
246	0x3c8497e7	0.016185714
247	0x3d2a3c13	0.041561197
248	0x3da74bc1	0.08168746
249	0x3e12fb60	0.14353704
250	0x3d1534d8	0.03642735
251	0xbd91e928	-0.07124549
252	0xbc439e10	-0.0119395405
253	0x3e119dae	0.14220306
254	0x3e025f11	0.12731577
255	0xbd892662	-0.06696774

fusion.fusion_layer.bias f4 [64]
0	0x3c9a671c	0.018847995
1	0x3d3a2209	0.045442615
2	0x3d8b63e8	0.06806165
3	0x3b86cf9e	0.0041141054
4	0xbd02b33e	-0.03190922
5	0xbd5c3fbd	-0.053771723
6	0xbdc159fa	-0.0944099
7	0x3d9f2349	0.07770402
8	0x3d93e3f1	0.07221211
9	0x3d9ebc58	0.077507675
10	0x3d6281fd	0.055299748
11	0xbdcb648f	-0.099312894
12	0x3e06620c	0.1312334
13	0xbda5e671	-0.08100594
14	0xbd797ad7	-0.060908165
15	0x3dbbb028	0.091644585
16	0x3d88399e	0.066516146
17	0xbd04f40c	-0.032459304
18	0x3d20c293	0.03924806
19	0x3d7aa14f	0.061188992
20	0x3de9645d	0.11396096
21	0xbd0bc1bf	-0.034120318
22	0x3d8ced3d	0.06881187
23	0x3decfe3d	0.115719296
24	0xbb43837b	-0.0029833007
25	0x3c0e7b0a	0.008696327
26	0xbdb41281	-0.08792592
27	0x3dabd06e	0.08389364
28	0xbcd8df31	-0.026473613
29	0xbcee38b3	-0.02907977
30	0xbd53a894	-0.05167444
31	0x3de23c6a	0.11046679
32	0x3d508519	0.05090818
33	0xbd04d6e6	-0.032431506
34	0x3d2390ec	0.03993313
35	0xbdc065f2	-0.093944445
36	0x3d0b882f	0.03406542
37	0xbd11d706	-0.035605453
38	0x3df52f1a	0.119718745
39	0x3d718a29	0.05896965
40	0xbd077106	-0.033066772
41	0xbd9f579c	-0.07780382
42	0x3cdf21bb	0.027237764
43	0xbd4f2e8b	-0.050581496
44	0xbcde6d8a	-0.027151842
45	0xbdff6a25	-0.12471417
46	0x3d5000cb	0.050782006
47	0xbe174fab	-0.14776485
48	0xbd93b750	-0.072126985
49	0x3d93a830	0.072098136
50	0x3dc80137	0.09765857
51	0x3d174907	0.03693488
52	0x3db17a78	0.08665937
53	0x3da475f8	0.08030313
54	0x3d24c584	0.040227428
55	0x3ddf0463	0.108895086
56	0xbd999369	-0.074988194
57	0x3b317421	0.0027077275
58	0xbdbc2e7c	-0.09188554
59	0xbe1f87e9	-0.1557919
60	0x3dcafc69	0.09911425
61	0xbe30a16a	-0.17249075
62	0x3dfcb1c6	0.12338595
63	0xbde0722a	-0.10959275

return_ratio_layer.0.weight f4 [32, 64]
0	0xbe0dc6aa	-0.13845316
1	0xbd387779	-0.045035813
2	0x3d0e030e	0.034670882
3	0xbcd1340d	-0.025537515
4	0xbd29f720	-0.041495442
5	0xbc6bdfb0	-0.014396593
6	0x3d51176b	0.051047724
7	0xbde27c9b	-0.11058923
8	0xbd2c1743	-0.04201437
9	0xbd56c539	-0.05243418
10	0x3df26394	0.11835399
11	0xbda96b2f	-0.08272397
12	0x3d5f9539	0.05458567
13	0xbd2b6f6c	-0.041854307
14	0xbd66589a	-0.05623684
15	0x3d9ab677	0.07554334
16	0x3d81ab31	0.0633148
17	0xbd9bc733	-0.076063536
18	0x3dcbc6a6	0.099499986
19	0xbd3d4260	-0.04620588
20	0x3dac8cbc	0.084252805
21	0xbd92023c	-0.071293324
22	0x3d041a2d	0.032251526
23	0xbd74e9d8	-0.059793323
24	0x3d03778c	0.03209643
25	0x3cd426c0	0.025897384
26	0xbdee3c86	-0.11632638
27	0x3dce20d8	0.10064858
28	0xbdc36df4	-0.09542456
29	0xbcf9a1fa	-0.030472744
30	0x3e1f4bf0	0.15556312
31	0xbd7984cb	-0.060917657
32	0xbe1bab18	-0.15201986
33	0x3d523e78	0.051329106
34	0x3d9b3088	0.07577616
35	0x3d7b2fc9	0.06132487
36	0x3d95ce39	0.073147245
37	0x3d06dc61	0.032925013
38	0xbd290f57	-0.041274395
39	0xbd440c08	-0.047863036
40	0xbd5e6de0	-0.054304004
41	0x3dfb5886	0.12272744
42	0xbdcac0de	-0.09900068
43	0x3d6c3f4e	0.05767756
44	0x3d5456d7	0.05184063
45	0x3d9a9726	0.075483605
46	0xbd778c5e	-0.0604366
47	0xbd9e2a1a	-0.07722874
48	0xbc9bba18	-0.019009635
49	0x3b635c2b	0.0034692388
50	0x3de4a748	0.11164719
51	0x3ba0e6df	0.0049103345
52	0x3bb78a56	0.0056012077
53	0xbbf4fc30	-0.007476352
54	0x3be6ac71	0.0070395996
55	0xbe51c86e	-0.20486614
56	0x3d6b48f6	0.057442628
57	0xbde2ac8d	-0.11068068
58	0xbdc78418	-0.09741992
59	0xbd91a137	-0.071108274
60	0x3d298810	0.041389525
61	0xbe0a07fc	-0.13479608
62	0x3e365114	0.17804366
63	0xbe160e6d	-0.1465394
64	0xbdc64d79	-0.096827455
65	0xbd746854	-0.059669808
66	0x3e503388	0.20332158
67	0x3d9cb967	0.0765255
68	0x3b08e45e	0.002088807
69	0xbdaed44e	-0.08536588
70	0xbd4ae256	-0.049532257
71	0x3d993cb1	0.07482279
72	0xbd5c00d8	-0.053711742
73	0xbbf3c078	-0.0074387155
74	0x3df0011c	0.117189616
75	0xbd03a964	-0.032143965
76	0xbd48dc9c	-0.049038514
77	0xbd96a998	-0.07356566
78	0xbdeb99c8	-0.11503941
79	0x3d8635a8	0.06553203
80	0xbd7a2598	-0.06107101
81	0x3c3843c7	0.011246628
82	0x3db3ca2a	0.08778794
83	0x3c823198	0.015892789
84	0x3debfe9a	0.11523171
85	0xbc916228	-0.017747
86	0x3d076c08	0.03306201
87	0x3c95c370	0.018281668
88	0x3dd8c568	0.10584527
89	0x3d0ecdc8	0.034864217
90	0x3df16b6e	0.11788069
91	0xbd6c86bc	-0.05774568
92	0xbc694b10	-0.014239088
93	0xbbe4f9d3	-0.006987789
94	0xbd55b243	-0.052171957
95	0xbe4f307a	-0.20233336
96	0x3e097867	0.13424836
97	0xbc341e47	-0.010993547
98	0xbd92b802	-0.07164003
99	0x3dc8dd8f	0.09807884
100	0x3e4d54f4	0.20051938
101	0x3ddec7d5	0.10877959
102	0xbcc42bbf	-0.023946641
103	0x3d1da42c	0.038486645
104	0xbd146108	-0.03622535
105	0x3cfe7c18	0.031065032
106	0x3d908e6f	0.07058417
107	0x3d87a4aa	0.06623204
108	0x3e0b6468	0.1361252
109	0x3d84d190	0.064852834
110	0x3d6d681e	0.057960622
111	0x3db321b1	0.087466605
112	0xbd802f5e	-0.062590346
113	0xbc9bd98a	-0.01902463
114	0xbdfb4df6	-0.12270729
115	0x3dacc337	0.08435672
116	0x3c416e56	0.011806091
117	0x3c973b5c	0.018460922
118	0xbb473700	-0.0030397773
119	0xbe7ea9c7	-0.24869452
120	0x3c98e3e1	0.018663349
121	0xbd6b445b	-0.057438236
122	0x3c929ff0	0.01789853
123	0xbb26da88	-0.0025459845
124	0xbdf06a04	-0.11738971
125	0xbd6c1e1b	-0.0576459
126	0x3cfd8221	0.03094584
127	0x3df8b662	0.12144162
128	0xbdff827e	-0.12476061
129	0x3cb2792b	0.021786293
130	0xbbc2832c	-0.005936047
131	0xbe1c2a8e	-0.15250608
132	0xbd81b45d	-0.0633323
133	0x3afb5b80	0.0019177049
134	0x3daa522a	0.08316453
135	0x39db582d	0.0004183663
136	0xbd98bc00	-0.07457733
137	0x3cd4e179	0.02598642
138	0x3d222024	0.039581433
139	0xbde5d17e	-0.11221598
140	0xbd01a197	-0.031648245
141	0x3cb8244d	0.022478247
142	0xbca57755	-0.020198504
143	0x3c067603	0.008206847
144	0xbd875a37	-0.06609004
145	0x3cbc9c58	0.02302377
146	0xbdca5d0e	-0.0988103
147	0xbdccd06e	-0.10000692
148	0xbda83f10	-0.08215153
149	0x3de5e2dc	0.112249106
150	0xbdba7d0a	-0.091058806
151	0x3ab11b30	0.0013512131
152	0x3cd2a5f0	0.02571389
153	0x3c4969a0	0.012293249
154	0x3dbc298e	0.091876134
155	0x3d7d57ac	0.06185119
156	0x3c9b0af8	0.018926129
157	0xba2fff08	-0.0006713723
158	0xbd89740a	-0.06711586
159	0x3d9e20c5	0.07721094
160	0x3cd15646	0.025553834
161	0x3c4bb9cc	0.012434434
162	0xbe08141c	-0.13288921
163	0xbe04f634	-0.12984544
164	0x3d577fd7	0.052612152
165	0x3da0b5d3	0.0784718
166	0xbc39f239	-0.011349254
167	0x3db9fe4a	0.09081705
168	0xbd970486	-0.0737391
169	0xbaa4c480	-0.0012570769
170	0x3da56288	0.08075434
171	0x3d07409d	0.033020604
172	0xbdc0f2f5	-0.094213404
173	0xbdfbbf5a	-0.12292357
174	0xbdc21c5f	-0.094780676
175	0xbc1bb780	-0.009504199
176	0x3dd9f134	0.10641709
177	0xbdf4eddb	-0.1195943
178	0xbc330b7e	-0.010928033
179	0xbe7f650c	-0.2494089
180	0xbdd00a55	-0.10158221
181	0x3e012945	0.126134
182	0x3dc3076a	0.095228985
183	0xbd658634	-0.05603619
184	0x3d7e2fac	0.062057182
185	0xbc1bfcbf	-0.009520709
186	0xbdb864c4	-0.090035945
187	0x3dc16771	0.09443558
188	0xbd94fcbe	-0.07274769
189	0x3d2a445d	0.041569103
190	0x3e0e3773	0.1388834
191	0x3dd5b155	0.10434214
192	0x3db75777	0.089522295
193	0xbdd49d7e	-0.10381602
194	0xbcd16aec	-0.02556368
195	0xbdd53cbe	-0.10411976
196	0x3db3bed4	0.08776632
197	0x3d5a5010	0.05329901
198	0xbe021f44	-0.1270724
199	0x3d03c23b	0.032167654
200	0xbd9330ba	-0.07187028
201	0x3dbef8d5	0.09324805
202	0x3caa4ba1	0.020788016
203	0xbccc3868	-0.02492924
204	0x3d99ac90	0.07503617
205	0xbdd22290	-0.102604985
206	0xbde7bc16	-0.113151714
207	0xbd74a6b7	-0.059729304
208	0xbda9b59e	-0.08286594
209	0xbd9f8e16	-0.077907726
210	0xbd51c580	-0.05121374
211	0xbda76a73	-0.081746005
212	0xbdb5eda4	-0.08883217
213	0x3dbed906	0.09318738
214	0xbd41f93f	-0.04735684
215	0xbb9de056	-0.0048180027
216	0x3df91014	0.1216127
217	0xbdd0f3ca	-0.10202749
218	0xbca11be8	-0.019666627
219	0x3d968435	0.07349435
220	0xbd3bce2c	-0.045850918
221	0xbc51f448	-0.012814589
222	0x3db19d13	0.08672538
223	0x3dcfece1	0.10152603
224	0x3d6927b6	0.056922637
225	0x3db01160	0.08597064
226	0x3d28c836	0.04120656
227	0xbd398f54	-0.045302704
228	0x3d26193e	0.040551417
229	0xbc838ad1	-0.016057404
230	0xbdcefcd1	-0.10106815
231	0xbd808066	-0.0627449
232	0xbdd5e85e	-0.10444711
233	0x3dfbc9f4	0.12294379
234	0xbb0b65af	-0.0021270325
235	0x3d9abd67	0.07555657
236	0x3d067670	0.032827795
237	0xbcb786f0	-0.02240321
238	0x3db6b4b9	0.08921189
239	0x3da2275b	0.07917663
240	0xbdf6aba2	-0.12044455
241	0xbdd7d214	-0.10538116
242	0xbdba7067	-0.0910347
243	0xbdff4ed9	-0.12466211
244	0x3d3b571b	0.045737367
245	0x3d5ce6f1	0.05393118
246	0x3de3d1f4	0.1112403
247	0x3b3f37c7	0.0029177533
248	0x3dabb273	0.08383646
249	0xbcb28ba4	-0.021795101
250	0xbd2b42bc	-0.04181169
251	0x3df5b8f2	0.11998166
252	0xbd063cb8	-0.03277275
253	0xbcf79225	-0.030221054
254	0x3da28cc9	0.07937009
255	0xbe2086ee	-0.15676472

return_ratio_layer.0.bias f4 [32]
0	0xbd66ff3a	-0.056395747
1	0x3d102357	0.035189953
2	0x3da15e94	0.078793675
3	0xbe0fb11c	-0.14032406
4	0xbdd5a015	-0.10430924
5	0xbd722b1a	-0.059123136
6	0x3e02175a	0.1270422
7	0xbda17fc2	-0.07885696
8	0x3d888be2	0.066673055
9	0x3df8f6a1	0.12156416
10	0xbdad03c6	-0.08447985
11	0xbded6279	-0.11591048
12	0xbdb8fa17	-0.09032076
13	0x3e08355e	0.13301608
14	0xbe095522	-0.13411382
15	0xbe31a840	-0.17349339
16	0xbd0c041e	-0.034183614
17	0xbd94a035	-0.072571196
18	0xbe20d04a	-0.15704456
19	0x3d00ede0	0.031476855
20	0x3bc28f55	0.0059374967
21	0x3d595726	0.053061627
22	0xbd5e851e	-0.05432617
23	0x3d4e3d2d	0.05035131
24	0xbac78928	-0.0015223371
25	0xbd967cdc	-0.07348034
26	0xbdb5348c	-0.08847913
27	0xbd1f5182	-0.03889609
28	0x3c7e791b	0.0155318035
29	0xbd969521	-0.07352663
30	0xbe11a1e9	-0.1422192
31	0xbd33669b	-0.043799024

return_ratio_layer.2.weight f4 [1, 32]
0	0xbc60ca49	-0.013720104
1	0xbdeed6f1	-0.116620906
2	0x3d2ea2b8	0.04263565
3	0xbdd8b7e7	-0.105819516
4	0x3d0e1966	0.03469219
5	0x3c14095f	0.009035437
6	0xbd70f212	-0.058824606
7	0x3da24ee3	0.07925203
8	0x3c34c68e	0.011033667
9	0xbe1723f4	-0.14759809
10	0xbca14269	-0.019684987
11	0x3d82df97	0.06390303
12	0x3b1d2bb1	0.002398234
13	0xbb8a5fa7	-0.0042228284
14	0x385d30fc	5.2736126e-05
15	0x3d99bb77	0.07506459
16	0xbdca6ede	-0.098844275
17	0x3d6a0876	0.057136975
18	0xbd0f98bf	-0.03505778
19	0xbce8bd70	-0.028410643
20	0x3b92a0c0	0.0044747293
21	0x3cb91c0a	0.022596378
22	0x3db6f3c7	0.089332156
23	0x3e112969	0.14175953
24	0x3c0d5eba	0.008628542
25	0x3c91a72d	0.017779911
26	0x3c692d82	0.014232041
27	0x3aa782c4	0.001278006
28	0x3d27f305	0.041003246
29	0x3c210e20	0.009830028
30	0x3caa8a42	0.02081788
31	0x3db8c3fb	0.09021755

movement_layer.0.weight f4 [32, 64]
0	0xbc9b7065	-0.018974492
1	0x3c8ab2f8	0.016931042
2	0x3d610b7d	0.054942597
3	0xbcc87455	-0.024469534
4	0x3d4d616c	0.050141737
5	0x3df4dc3a	0.119560674
6	0x3d4fba60	0.05071485
7	0xbde9e254	-0.11420122
8	0x3d79fb4c	0.06103067
9	0x3d989b76	0.07451527
10	0xbc994328	-0.01870878
11	0x3ce0f940	0.027462602
12	0xbd20bb48	-0.039241105
13	0xbcba4b58	-0.022741005
14	0xbdd3e1cc	-0.10345802
15	0xbcadff12	-0.021239791
16	0xbdd77f62	-0.10522343
17	0xbd9bb596	-0.07602994
18	0xbcc930d0	-0.024559408
19	0xbdd281ba	-0.1027865
20	0xbd16fadc	-0.036860332
21	0xbdb764e2	-0.08954789
22	0xbc637f10	-0.0138852745
23	0xbcb03c90	-0.021513253
24	0x3c3b6130	0.0114367455
25	0xbd07cc3c	-0.033153757
26	0xbde704bc	-0.112802
27	0x3da0be3c	0.07848784
28	0xbdc73e1a	-0.09728642
29	0xbdf9f719	-0.12205333
30	0x3ceff158	0.029289886
31	0xbd5c7bb0	-0.053828895
32	0xbce31b38	-0.02772294
33	0x3d79fab6	0.061030112
34	0xbd8b3354	-0.067968994
35	0x3c824a3a	0.015904535
36	0xbd2256b7	-0.03963348
37	0x3d3bba0c	0.045831725
38	0x3c8029f0	0.015644997
39	0xbda65ff0	-0.081237674
40	0xbda1d6c2	-0.0790229
41	0x3c25db10	0.010123029
42	0xbb505045	-0.0031786126
43	0x3d061954	0.032739
44	0xbde4e60c	-0.111766905
45	0xbd89f438	-0.06736034
46	0xbd4ee922	-0.0505153
47	0xbc88ff88	-0.01672341
48	0x3d2af590	0.041738093
49	0x3df770fc	0.12082097
50	0xbdb6a6fc	-0.089185685
51	0xbd989177	-0.0744962
52	0xbc30aa9a	-0.010782862
53	0x3df19864	0.11796644
54	0xbd2a0b84	-0.04151489
55	0xbd920898	-0.071305454
56	0xbd245622	-0.040121205
57	0xbd678b17	-0.05652913
58	0xbd96e1ba	-0.07367273
59	0x3d77a8a4	0.060463563
60	0xbd8e850a	-0.06958969
61	0xbe119a75	-0.14219077
62	0xbb56c90d	-0.0032773644
63	0x3af207dd	0.0018465478
64	0x3d471238	0.04860136
65	0xbdc20403	-0.094734214
66	0xbe154ead	-0.14580794
67	0x3d8de3d8	0.06928223
68	0xbda4f1b5	-0.080539145
69	0x3bcb9560	0.0062128752
70	0x3d9065ff	0.07050704
71	0x3d8f7c09	0.0700608
72	0xbd20fb37	-0.039302077
73	0xbda8694a	-0.08223207
74	0xbcc076c0	-0.023494124
75	0x3d5cbad8	0.053889126
76	0xbbe65ec8	-0.007030342
77	0xbd803145	-0.062593974
78	0x3d6c496e	0.057687216
79	0x3c9372d0	0.017999083
80	0x3d769317	0.06019887
81	0x3d2fef38	0.042952746
82	0xbddface0	-0.10921645
83	0x3cde9416	0.027170222
84	0xbddce79a	-0.10786362
85	0xbd8c2ee4	-0.06844881
86	0x3dbad3c0	0.09122419
87	0xbdcfc009	-0.1014405
88	0xbde990fd	-0.114046074
89	0xbc77ecb0	-0.015132114
90	0x3d902c50	0.07039702
91	0xbd8588ba	-0.06520219
92	0xbd80e672	-0.06293954
93	0x3dbab3e1	0.091163404
94	0x3c682e80	0.014171243
95	0xbddd51ac	-0.10806593
96	0x3dc2a21c	0.09503576
97	0xbd92d211	-0.07168973
98	0x3d88e489	0.066842146
99	0x3d60d263	0.05488814
100	0xbddca07b	-0.10772797
101	0x3c30479c	0.0107592605
102	0x3d8c7778	0.06858724
103	0xbd5459e8	-0.051843554
104	0xbdb4b6de	-0.08823942
105	0xbd3713d4	-0.044696644
106	0xbdc55b8d	-0.096366026
107	0xbc1397bc	-0.009008344
108	0xbdf474c5	-0.119363345
109	0x3d4fd4c8	0.050740033
110	0x3d95445c	0.07288429
111	0xbc99366b	-0.018702706
112	0xbd4914d4	-0.04909213
113	0xbd1d99c4	-0.03847672
114	0xbcfbfd6c	-0.03076049
115	0xbdb2b7bd	-0.087264515
116	0x3cb0fb44	0.021604188
117	0x3d1bb49d	0.038014043
118	0x3dc51bc4	0.096244365
119	0xbdd8ea23	-0.10591533
120	0xbd1c149e	-0.0381056
121	0xbcbb9145	-0.022896418
122	0xbd996c8d	-0.074914075
123	0xbdda344b	-0.10654505
124	0xbd1c6c5c	-0.038189277
125	0xbdbc21ce	-0.09186135
126	0x3c578c02	0.013155939
127	0x3dac44c4	0.084115535
128	0x3d3b4142	0.04571653
129	0xbdc286ac	-0.09498343
130	0xbe092d69	-0.13396229
131	0x3d734acf	0.059397515
132	0xbc569968	-0.013098098
133	0xbbb2c040	-0.005455047
134	0x3c55fa5f	0.013060181
135	0x3d51f0b7	0.051254954
136	0xbc93299c	-0.017964177
137	0x3c0d84e6	0.0086376425
138	0xbd369676	-0.044577084
139	0x3df2e156	0.11859386
140	0xbc29ff40	-0.010375798
141	0x3d343209	0.04399303
142	0x3d817590	0.063212514
143	0xbcc49e10	-0.024001151
144	0x3d9cac31	0.076500304
145	0x3db49cc4	0.08818963
146	0x3de063d0	0.10956538
147	0xbbb843c4	-0.0056233127
148	0xbd9408ea	-0.07228263
149	0x3d860b1a	0.06545086
150	0x3dc1e62d	0.09467731
151	0x3d83a338	0.06427616
152	0xbddb9d81	-0.10723401
153	0xbd07864c	-0.03308706
154	0xbcc17e08	-0.023619667
155	0x3beaf55c	0.0071703624
156	0x3d13aa68	0.036051184
157	0xbdcaa5a7	-0.09894877
158	0xbdb5a50e	-0.08869372
159	0xbd97b965	-0.07408408
160	0x3db7c01d	0.089721896
161	0x3db31bc3	0.087455295
162	0xbd9be574	-0.07612124
163	0xbe197283	-0.14985089
164	0xbd114caa	-0.035473503
165	0xbd78a82a	-0.06070725
166	0x3ddab627	0.10679274
167	0xbd84cb7c	-0.06484124
168	0x3da201be	0.079104885
169	0xbcf73ea8	-0.030181244
170	0x3dcb3edc	0.09924099
171	0xbd014687	-0.0315614
172	0xbc5be999	-0.013422393
173	0x3da01b44	0.078177005
174	0xbc9ab01c	-0.018882804
175	0x3c9697ca	0.018382926
176	0x3da7ded6	0.081967995
177	0xbda54472	-0.080696955
178	0xbc0c8b22	-0.008578094
179	0xbe0ac6d2	-0.13552406
180	0x3d3a3ff7	0.045471158
181	0x3dbe0d3f	0.0927987
182	0x3d86f3a1	0.06589437
183	0xbd4da549	-0.050206456
184	0xbde0054f	-0.109385125
185	0xbdd4d1c6	-0.103915736
186	0xbde09eee	-0.109678134
187	0x3cec351d	0.02883392
188	0xbd258f7c	-0.04042004
189	0xbdc898db	-0.0979478
190	0xbdeac607	-0.11463552
191	0xbe06b329	-0.13154282
192	0xbdc33b58	-0.09532803
193	0xbbf8cf55	-0.0075930753
194	0x3d8ec817	0.06971758
195	0x3c9afb76	0.018918734
196	0xbd4f6da6	-0.05064168
197	0x3d41e430	0.047336757
198	0x3caca0f5	0.021072844
199	0xbdfec984	-0.1244078
200	0xbd0b308e	-0.033981852
201	0xbdfa07f0	-0.12208545
202	0x3d9e7762	0.07737614
203	0xb8e5e51c	-0.00010962246
204	0x3c846440	0.016161084
205	0x3d05d4a8	0.032673508
206	0xbdafbd24	-0.085809976
207	0x3bab2261	0.005222604
208	0x3dbc36ad	0.09190116
209	0x3cc2dd93	0.023787295
210	0x3de528de	0.111894354
211	0xbd3be580	-0.045873165
212	0x3ce5aa98	0.028035447
213	0xbd756060	-0.059906363
214	0xbd865e06	-0.06560902
215	0x3c6a4000	0.014297485
216	0x3d54d6f4	0.051962808
217	0x3c79e150	0.015251473
218	0xbceec6e8	-0.02914758
219	0xbccd05a0	-0.025027096
220	0xbdf02362	-0.11725499
221	0x3ca9ae6e	0.020713057
222	0x3cb45382	0.022012476
223	0xbdb17fc0	-0.086669445
224	0x3c708ac8	0.0146815255
225	0xbc8f403a	-0.01748668
226	0x3d4377a7	0.04772153
227	0x3d5b7462	0.05357779
228	0xbd6deaf6	-0.058085404
229	0xbe02a422	-0.12757924
230	0xbd98da08	-0.07463461
231	0x3de3ef76	0.11129658
232	0xbd7bd218	-0.061479658
233	0xbdf80ad0	-0.12111437
234	0x3dbc7efd	0.092039086
235	0xbd4e3c3d	-0.050350416
236	0xbcec2ebe	-0.028830882
237	0xbdb96634	-0.09052697
238	0xbd6a3cb5	-0.0571868
239	0xbd7244ec	-0.05914776
240	0xbc9a24c8	-0.018816367
241	0xbdccceaa	-0.100003555
242	0x3bd55178	0.006509956
243	0xbe040e8b	-0.12896173
244	0x3d95c5a4	0.073130876
245	0x3d74036f	0.059573587
246	0x3d851a60	0.06499171
247	0x3d18a0f2	0.037262864
248	0xbdf98982	-0.12184431
249	0xbdc201f3	-0.09473028
250	0x3d32f630	0.043691814
251	0xbdd934cd	-0.10605774
252	0x3d4085d4	0.04700263
253	0x3dd98a3e	0.10622071
254	0x3d0dfc78	0.0346646
255	0xbc0b8998	-0.008516692

movement_layer.0.bias f4 [32]
0	0xbdb1d1f2	-0.08682622
1	0x3d82957d	0.06376169
2	0x3cbe485c	0.023227863
3	0xbdd38a5f	-0.103291266
4	0xbcdf9b21	-0.02729565
5	0xbe0963a1	-0.13416912
6	0xbd76f280	-0.06028986
7	0xbdb64a7f	-0.08900928
8	0xbcc34ac8	-0.02383937
9	0x3ced3acb	0.028958699
10	0xbe0f81b2	-0.14014319
11	0xbd208272	-0.039186902
12	0xbd883553	-0.06650796
13	0x3b98834c	0.0046543237
14	0xbe0edf47	-0.13952361
15	0xbdfe5e17	-0.1242029
16	0x3d00354a	0.03130082
17	0x3da5b445	0.08091024
18	0xbdb87fe6	-0.0900877
19	0xbe1c1417	-0.15242039
20	0xbd3d5423	-0.046222817
21	0x3d636e9b	0.055525403
22	0xbd1cc232	-0.038271137
23	0x3d3bde6f	0.045866426
24	0x3cef68d8	0.029224798
25	0x3b1cbdc8	0.002391683
26	0xbe0f37fb	-0.13986199
27	0x3d2a7f56	0.041625343
28	0xbdfaa16b	-0.12237819
29	0x3d9183eb	0.071052395
30	0x3d266972	0.040627904
31	0xbcf7a550	-0.030230194

movement_layer.2.weight f4 [1, 32]
0	0x3c68e158	0.014213882
1	0xbd7c23fc	-0.061557755
2	0x3e1e7a65	0.15476377
3	0x3c2a452d	0.010392469
4	0x3e0c33af	0.1369159
5	0xbc776933	-0.015100765
6	0xbdf0d049	-0.11758477
7	0x3dded83f	0.108810894
8	0x3a976f91	0.0011553635
9	0xbd0cdd67	-0.034390833
10	0x3dc7e3c4	0.0976024
11	0xbd12d9c0	-0.035852194
12	0x3dd50338	0.104010046
13	0x3b66afeb	0.003520007
14	0x3db2e594	0.08735195
15	0xbda7604a	-0.081726626
16	0x3d339649	0.043844495
17	0x3c75c515	0.015000601
18	0xbd93ff8a	-0.072264746
19	0x3ab4834a	0.0013772037
20	0x3d07a3da	0.033115245
21	0x3d9b8888	0.07594401
22	0x3dcf1f48	0.10113388
23	0xbc5d2410	-0.0134973675
24	0x3bb4b660	0.005514905
25	0x3dd712bb	0.105016194
26	0x3c886613	0.016650235
27	0xbc8e6340	-0.01738131
28	0xbc665735	-0.014058878
29	0xbc95a741	-0.01826823
30	0x3c13d593	0.009023088
31	0x3dc662d2	0.09686817
