fingat_tranformer_model.pth (torch, 34181 bytes, 8 tensors)

fusion.fusion_layer.weight f4 [64, 48]
00000000: 07c8 40bd 6851 cf3d 1694 92bd 5812 b9bd
00000010: 0651 aa3c a71a 1fbd d574 21be 36d1 043e
00000020: 608a 4b3d e059 16bd 594e 1d3c 7d18 263e
00000030: 9ca1 843d 5112 50bd 324d 17be 1b66 b33d
00000040: 5239 313e 09a9 fd3b f03d 343d 79df 733d
00000050: 5e04 923b 93f5 0a3d 56a1 38be 83f6 06be
00000060: 7689 2bbe 92ec e53d c9bf 0abe 2883 fe3d
00000070: 06ca 943d e977 fbbd 2e6b 803b 0c19 ea3d
00000080: 2aa9 383e c43c 383e b4df fe3b e526 febd
00000090: 007a 0a3c bb26 3d3c 999a 1dbd 8138 1d3e
000000a0: 0a9e e0bd 805b 51bd 357d f5bd ef8c 62be
000000b0: a91c c83d 790b 06be 8c4f 46bc 63f0 203d
000000c0: 793d f7bc 96d6 483c 8cf2 053e e09c b8bd
000000d0: b34a 21bd 344a 18be 7322 b7bd 7be0 953d
000000e0: 419d a8bd 2f6c 46bd ff3d 333d 7b17 7c3d
000000f0: a138 d6bd bfa4 4c3d e3f8 063c 6cb1 4ebd
00000100: a063 183c 7fe4 c33d e159 eb3d e7b1 97bb
00000110: 7ce5 0abe 01ac 24bd 30b2 ed3c 4bb3 a03d
00000120: a8ea 86bb a459 87bd d5bd 8839 4bf5 303c
00000130: 3fc2 1c3e 7366 703c 3907 28bd f07c 0abd
00000140: 0c9d cbbd 7e1d 88bd b49f 8b3d a29b 49bd
00000150: d240 edbd 5dc6 dbbd 5ead 3a3b 30c7 5fbd
00000160: 758f 42bd 8ff4 be3d 0316 f6bc d0cb 9fbd
00000170: 0e5f fa3d 33ee 373d 54ee dd3d 6253 c7bd
00000180: 9013 0a3e 8416 f33d fb80 53bc 0ec0 8d3d
00000190: 6dbd 1c3e aff1 c4bd 369b f13d 9f00 01bd
000001a0: d785 fabd d656 38bd 7123 b3bd dc63 1dbd
000001b0: 71a9 a8bd 2c0b d93c 0d5e e73d 0ce8 293d
000001c0: 5213 2a3e 6b05 fcbc e770 ab3d 613a bebb
000001d0: faf5 39bd e22b dfbd c2b2 fa3c 8f6f 93bd
000001e0: a377 08bc 523a 043e e821 d53c 28d3 7a3d
000001f0: ba2f 75bd 46b9 a73d b8c9 debd a890 153e
00000200: c124 fb3c 073d c93c 1a25 a43d bf2c 0d3b
00000210: 58d8 d53d 7d5d a8bc 616f 85bd 24ff 8c3d
00000220: 7cbe 0cbe 9b4e 31bd 94e6 0bbe 113d 58be
00000230: c78c be3d bf2d 5bbd 5c31 10be 6ba4 13be
00000240: 9410 263e 0c23 bcbd 810f e03d c558 bb3d
00000250: 59ea ac3c 45c4 5bbc 3e95 343d c64f 223e
00000260: b9b5 a83d 15d5 d6bc be7c c0bd 18b0 273c
00000270: e121 c53d 1b3d 32bb a1b4 c9bc 35e7 6fbc
00000280: bdd0 f13d 0168 0fbd 5400 2dbd 0c2b 8ebd
00000290: 517a 2ebd ee47 db3d 78be 20bd 386e e93d
000002a0: 46e1 d23d 6120 c13c c5b6 f9bd d3e3 b93d
000002b0: 9261 f4bd 3f8a cdbd 42d0 e1bd 4ec2 92bd
000002c0: 0c53 c5bd eed8 11bd 10e4 1cbd 0006 873d
000002d0: a729 19be 920a 0c3d b270 013d fd28 d73b
000002e0: e2ac 273e ec83 d0bd f2d6 48bd a361 5e3c
000002f0: 2127 5e3b 595a 023e 8583 783a 8871 b23c
00000300: 6cee bc3d 2466 c03d c137 2e3e 7a00 223e
00000310: d92a 44bd d476 f1bd 9ccf 833c 0f95 ad3d
00000320: 3a22 ae3d fa74 073e 7f6a 793d 3264 313e
00000330: 4dad 9dbd f2ff dd3d f2fb 9f3d 7855 d2bc
00000340: 18d9 1b3d 39f7 31bd 4aae 803d dd70 e93d
00000350: 57dd ad3b 4f0b 0bbe bea7 df3d a17e 093e
00000360: a59d 5b3d e5f0 46bd f0c4 0d3e de1b 783d
00000370: f8d5 0dbe 376a 1cbd 10a8 b9bd b1fe a03d
00000380: 7eb0 2c3d e3c3 a33d d90c e23c b018 5c3d
00000390: 16aa cdbd 38e2 26be 36ff 0f3c 6656 3e3d
000003a0: 7340 193e a95b 1c3d 302d 903e 2561 95bd
000003b0: 73dc c53d 9088 6fbc 9d72 dcbd c68b 0c3d
000003c0: 5317 b7bd 8b03 c7bd 6fe2 833c 2152 983c
000003d0: c38f 123e 444e 303d e797 843c 133c 2a3d
000003e0: c14b a73d 60fb 123e d834 153d 28e9 91bd
000003f0: 109e 43bc ae9d 113e 115f 023e 6226 89bd
-0.04706576 0.10122949 -0.071571514 -0.09036702 0.020790588 -0.038843777 -0.15767224 0.12970433
0.04969251 -0.036706805 0.009601199 0.16220279 0.06476137 -0.050798718 -0.14775541 0.087597094
0.17307022 0.007741098 0.04400438 0.059539292 0.004456087 0.033925604 -0.18030295 -0.13179974
-0.16751656 0.11226763 -0.13549723 0.1242736 0.072650954 -0.122787304 0.003919027 0.114305586
0.18033281 0.1799193 0.0077781323 -0.12409762 0.008451939 0.011544879 -0.038477514 0.15353586
-0.109676436 -0.05111265 -0.11986772 -0.22124074 0.097710915 -0.13090314 -0.012103926 0.03929175
-0.03018068 0.0122581925 0.13080806 -0.090142965 -0.03937788 -0.14872056 -0.089421175 0.07318207
-0.08233119 -0.048443016 0.043760296 0.06154583 -0.1046002 0.0499618 0.00823805 -0.05046217
0.009301096 0.095650665 0.114917524 -0.004629362 -0.13564104 -0.0402031 0.02901563 0.078466974
-0.0041173287 -0.066088945 0.00026081377 0.01080067 0.15308474 0.014672863 -0.041022513 -0.033810556
-0.09942064 -0.0664625 0.0681757 -0.04922069 -0.11584629 -0.10731194 0.0028484683 -0.05463332
-0.047500093 0.093239896 -0.030039793 -0.07802546 0.122251615 0.0449049 0.10836473 -0.09732701
0.13484025 0.11869529 -0.012909169 0.06921397 0.15306635 -0.0961641 0.11797182 -0.031494733
-0.12232559 -0.04500469 -0.08746994 -0.03842531 -0.082354434 0.026494585 0.11297236 0.041481063
0.16608933 -0.030764302 0.08371144 -0.005805299 -0.045400597 -0.10897042 0.030602816 -0.071990125
-0.008329305 0.12912872 0.026017144 0.06123653 -0.05985997 0.08189635 -0.108783185 0.14605963
0.030657174 0.024565233 0.08014889 0.0021541563 0.10441655 -0.020552391 -0.065153845 0.06884602
-0.13744539 -0.043287855 -0.13662177 -0.21117045 0.09304195 -0.053510424 -0.14081329 -0.14418189
0.16217262 -0.09186372 0.10940457 0.09147791 0.02110784 -0.0134134935 0.04408764 0.15850744
0.08237786 -0.026224652 -0.09398793 0.010234855 0.096256025 -0.0027197066 -0.024622263 -0.014642526
0.11807392 -0.035011295 -0.04223664 -0.06941804 -0.04259712 0.10707079 -0.039244145 0.11397976
0.10296874 0.02357501 -0.12193064 0.09076657 -0.119326726 -0.10036134 -0.1102605 -0.07165967
-0.096349806 -0.03560727 -0.038303435 0.06592941 -0.14957295 0.034189768 0.031601615 0.0065661655
0.16374543 -0.10181412 -0.049033113 0.013573083 0.0033897834 0.12729777 0.0009480047 0.021782652
0.09225163 0.09394482 0.17013456 0.15820494 -0.047892425 -0.11790243 0.016090207 0.08475696
0.08502622 0.13228217 0.06089258 0.17323378 -0.0769907 0.10839833 0.07811727 -0.02567552
0.038048834 -0.04344866 0.06283243 0.1139848 0.005305927 -0.13578533 0.10920666 0.13427211
0.05361714 -0.04856958 0.13844657 0.06057345 -0.13851154 -0.038187232 -0.090652585 0.078610785
0.042160504 0.07996347 0.027594017 0.05373448 -0.10042207 -0.16297233 0.008788874 0.046469115
0.14965992 0.03817335 0.28159475 -0.072939195 0.09661188 -0.014619961 -0.10764048 0.034312986
-0.089399956 -0.09717473 0.016099183 0.01859385 0.14312653 0.04304339 0.016185714 0.041561197
0.08168746 0.14353704 0.03642735 -0.07124549 -0.0119395405 0.14220306 0.12731577 -0.06696774

fusion.fusion_layer.bias f4 [64]
00000000: ecfd af3c 08e1 363d 4c10 1f3d d365 2139
00000010: f382 02bd bd3f 5cbd e860 c7bd 44c4 893d
00000020: 6f00 8e3d 2f5e 9d3d 8ad3 673d 72bf ccbd
00000030: e191 ff3d 9ebc c7bd e9c5 22bd 364c a63d
00000040: 76c5 853d 8ab1 52bd 93c2 203d 3ee8 8b3d
00000050: 5d64 e93d 482b 4b3c 111b 6c3d 929c ec3d
00000060: 957d 543d 0a7b 0e3c 8112 b4bd 0332 a63d
00000070: 1631 21bd 3588 18bd 23ed 5dbd 0c8c fe3d
00000080: a7bb 713d 6608 10bd 1e14 173d 9dfd acbd
00000090: 84e1 4f3c 90d1 6fbc 586d e03d b48e 4f3d
000000a0: 0671 07bd 9c57 9fbd da2a a03c ee53 a1bd
000000b0: 8d45 5dbc 996c 09be 1249 6a3d 19c6 19be
000000c0: 50b7 93bd 531c 6f3d 8130 e43d 2a19 043d
000000d0: 8e47 d63d b705 a33d 2e17 363d d8d3 d93d
000000e0: a482 c3bd 0055 153b c02b bbbd cc32 20be
000000f0: 69fc ca3d 46ad 2dbe f68f d03d db76 07be
0.021483384 0.0446482 0.0388339 0.00015392089 -0.031863164 -0.053771723 -0.0973528 0.06726888
0.069336765 0.0768398 0.056598224 -0.09997453 0.12478996 -0.09752773 -0.039739523 0.08120005
0.06531803 -0.051438846 0.03924806 0.06831406 0.11396096 0.012400456 0.057643 0.11553301
0.051877577 0.008696327 -0.08792592 0.08115008 -0.039353453 -0.037239272 -0.05418123 0.124290556
0.05901685 -0.03516426 0.03688442 -0.084468104 0.012688044 -0.014637366 0.10958356 0.0506732
-0.033066772 -0.07780382 0.019551683 -0.078773364 -0.013505352 -0.13420333 0.05719859 -0.15016975
-0.072126985 0.05837662 0.11142064 0.03225056 0.10462867 0.079600744 0.0444557 0.10636109
-0.09546402 0.002278626 -0.09139204 -0.15644377 0.09911425 -0.1696063 0.10183708 -0.13228934

return_ratio_layer.0.weight f4 [32, 64]
00000000: 17b7 1dbe f7bc 67bd 0471 3b3d 38d9 a1bd
00000010: 2885 87bd b0df 6bbc 164f 383d b218 aabd
00000020: 0dbd 57bd e81f 44bd 9463 f23d 91a0 93bd
00000030: b8b7 743d 6c6f 2bbd 4d25 c1bd 8967 33bb
00000040: 97d7 7d3d d20c 82bd a6c6 cb3d 04bc 55bd
00000050: bc8c ac3d ae80 1abe 7896 0d3d d8e9 74bd
00000060: 937a 0c3c c026 d43c 863c eebd 067a d63d
00000070: f46d c3bd a30e 79bd a5d7 163e cdb1 dd3d
00000080: 8199 b6bd 0cec 0d3d ba1a 183d c967 4fbd
00000090: cd0c 3d3d 930e 20bd ae8d a93d 080c 44bd
000000a0: e06d 5ebd 8658 fb3d 0f0a dcbd 0114 e83c
000000b0: d7fc 573d 2697 9a3d 0693 6fbd f9ab 0dbc
000000c0: 18ba 9bbc 73a4 8dbb 8481 693c 2670 e1bd
000000d0: ed9e 04bc fa9c 6ebb c285 8f3b 9b35 cdbd
000000e0: 0a33 643d 69c0 9fbd 098e b9bd eb86 97bd
000000f0: 1088 293d afc1 e2bd e7b7 4e3d b84d e4bd
00000100: 60d8 f5bd 42bb f9bd e43e 053d 94b9 8d3d
00000110: ed58 8e3d 4ed4 aebd 2385 ec3a 35f5 b73d
00000120: 0af1 92bd 3639 abbd 1c01 f03d ef29 11bc
00000130: 9cdc 48bd 98a9 96bd 97a6 14be 6773 7c3d
00000140: 0764 80bd bb58 b6bd 2aca b33d 9831 823c
00000150: 9afe eb3d 6927 13bd 8d97 debc 70c3 953c
00000160: 1d78 213d c8cd 0e3d 6e6b f13d bc86 6cbd
00000170: 104b 69bc 1e22 e8bd 4ac8 2dbd cec4 11be
00000180: a2e4 083d 2daf 18be 80cb 92bd cc93 dcbc
00000190: 29ff 4e3d 55ff 503c 61eb a8bc 2ca4 1d3d
000001a0: 0861 14bd 187c fe3c 755e 42bc dc33 a23d
000001b0: 638d d53c 90d1 843d b3b4 99bc c4ad 993d
000001c0: 5e2f 80bd ca9c 36bd 4050 0dbe 1366 8abd
000001d0: e760 fc3b c6e6 a93d 0037 47bb 3b2e fcbd
000001e0: acee 793c b51e 68bd f09f 923c e3e0 2a3d
000001f0: 046a f0bd ba7b fcbd c81d 06be 17e6 bb3c
00000200: 892a 00be 12d6 0d3d cfd8 b5bc 5496 a8bd
00000210: 0096 25bd 805b fb3a 49c9 003e 0e59 543d
00000220: d777 94bd 536b ab3c 45c8 1c3d 664a 25be
00000230: 2e00 f1bc 50c9 063d 63db 51bd d5cd f2bb
00000240: 2f3e aebc 3ae4 0b3b 0e5d cabd 9a7e c1bd
00000250: 103f a8bd 2038 be3d 0c5c 033c 5bbb 263c
00000260: 8af9 94bd a069 493c 8e29 bc3d 7f82 5f3d
00000270: 7e92 e33b 795c bdbc b01e a4bd 1a1e 87bc
00000280: 4cc4 753d 6897 333d 5b56 52be 4fb3 1fbe
00000290: 34be dc3c 09cc cd3d 0344 e2bd 4afe b93d
000002a0: 8604 97bd 80c4 a4ba 465b 8a3d 7a5d 463d
000002b0: 570e 8cbd 5abf fbbd 2882 dabd a3f2 75bb
000002c0: 34f1 d93d ef3a f2bd 7e1a b3bc a30c 83be
000002d0: 63c2 4fbd dc01 e73d 514a bc3d 155b 11be
000002e0: 03fa d53d 62c8 babc 4f41 b5bd 12be ea3d
000002f0: befc 94bd 8a38 c73c f30b 153d a28c 8c3d
00000300: 04c6 f83d bd40 d0bd 36f8 fb3c 795d c9bd
00000310: 9283 5e3d 1050 5a3d 6f1a 12be c195 c43c
00000320: 8732 91bd 34a7 cd3d db71 763c 6e24 17ba
00000330: 466f 873d f536 debd 94a1 e8bd ae6d a9bd
00000340: 33f9 8fbd 4daa 16bd 80c5 51bd 1fed b2bd
00000350: a4ed b5bd 959c 27bd 6ae2 81bd b793 5dbc
00000360: de80 a13c caf3 d0bd e81b a1bc 5a03 8f3d
00000370: c5e8 08bd 96cf 393d 44e1 033e a886 783d
00000380: 6a46 c63b 74b1 e53d 39ab ea3d 1d01 193d
00000390: f885 1a3e a525 e9bc aa1a a6bd 6680 80bd
000003a0: 5ee8 d5bd f4c9 fb3d bbd4 c93c f680 f83d
000003b0: 1e8f af3c f086 b7bc 978c eb3d acc4 1c3d
000003c0: a2ab f6bd dd13 f6bd d729 14be d075 e4bd
000003d0: f316 7c3d 5ea6 333d 0629 003e 0cb2 0ebd
000003e0: 22ed 4d3d 8cd4 373c 4d02 2abd 8f79 f83d
000003f0: b83c 06bd 66fe 05bd f2f4 ae3d 4f5c 18bd
-0.15401874 -0.056576695 0.045762077 -0.07902759 -0.066171944 -0.014396593 0.044997297 -0.083054915
-0.052670527 -0.04788199 0.11835399 -0.0720836 0.05974552 -0.041854307 -0.09430943 -0.0027374944
0.06197318 -0.063501015 0.099499986 -0.05218126 0.084252805 -0.1508815 0.034567326 -0.059793323
0.008574146 0.025897384 -0.11632638 0.10472493 -0.09542456 -0.060804974 0.147307 0.108249284
-0.08915997 0.03464894 0.037134863 -0.050636087 0.046154786 -0.0390764 0.082789764 -0.047863036
-0.054304004 0.12272744 -0.10744106 0.028329851 0.05273136 0.075483605 -0.05848982 -0.0086469585
-0.019009635 -0.0043225824 0.01425207 -0.11007719 -0.0080945315 -0.0036409483 0.004379959 -0.1001999
0.055712737 -0.07800371 -0.09060294 -0.073987804 0.041389525 -0.110720985 0.05046835 -0.11147636
-0.12004161 -0.1219392 0.03253068 0.06920162 0.06950555 -0.08536588 0.0018045049 0.089823164
-0.07174881 -0.083605215 0.117189616 -0.008860095 -0.049038514 -0.07356566 -0.14516674 0.061633494
-0.06269079 -0.08903643 0.08778794 0.015892789 0.11523171 -0.035926256 -0.027171874 0.018281668
0.03942119 0.034864217 0.11788069 -0.05774568 -0.014239088 -0.11334632 -0.04242734 -0.14235231
0.033421166 -0.14910574 -0.07167721 -0.026925944 0.05053631 0.012756188 -0.02062005 0.038486645
-0.03622535 0.031065032 -0.011863341 0.07920048 0.026068395 0.064852834 -0.018762922 0.07503846
-0.062590346 -0.04458312 -0.13800144 -0.0675775 0.0077019813 0.0829597 -0.0030397773 -0.12313505
0.015254658 -0.05666991 0.01789853 0.041718375 -0.11738971 -0.123282865 -0.13097298 0.022936864
-0.12516226 0.03462798 -0.022198109 -0.08231798 -0.040426254 0.0019177049 0.12576784 0.05184274
-0.0724942 0.0209252 0.03827693 -0.16141662 -0.029419031 0.03290683 -0.051234614 -0.007409791
-0.021269886 0.002134575 -0.0988103 -0.094479755 -0.08215153 0.09288049 0.008017551 0.010176505
-0.07274158 0.012293249 0.091876134 0.05456781 0.0069449535 -0.023115383 -0.08013666 -0.016493846
0.060001656 0.043845564 -0.20540754 -0.15595745 0.026946165 0.10048682 -0.110481285 0.09081705
-0.0737391 -0.0012570769 0.0675569 0.04842899 -0.068386726 -0.12292357 -0.106693566 -0.0037528656
0.10641709 -0.11827647 -0.021863218 -0.2559558 -0.05072249 0.112796515 0.09193862 -0.14194901
0.104480766 -0.022800628 -0.08850347 0.11462034 -0.07274769 0.024318952 0.03638835 0.06862761
0.121471435 -0.10168598 0.030758005 -0.098322816 0.054324694 0.05329901 -0.14267896 0.02399719
-0.070897155 0.10041657 0.015041794 -0.00057656213 0.066130206 -0.10850326 -0.113589436 -0.08272873
-0.07029953 -0.036783505 -0.05121374 -0.087366335 -0.08883217 -0.040920813 -0.06342013 -0.0135239875
0.019714769 -0.10202749 -0.019666627 0.06983061 -0.03342511 0.045363985 0.12878901 0.060675293
0.0060508745 0.11215487 0.114584394 0.037354577 0.15090168 -0.028460333 -0.081105545 -0.0627449
-0.10444711 0.12294379 0.02463757 0.12133972 0.021430548 -0.02240321 0.11501425 0.0382735
-0.12044455 -0.12015507 -0.14469086 -0.111552835 0.061545324 0.043859832 0.12515649 -0.034837767
0.050274976 0.011220109 -0.0415061 0.121325605 -0.03277275 -0.032713316 0.08542813 -0.037197407

return_ratio_layer.0.bias f4 [32]
00000000: 5a90 b2bd 12b8 d6bd 1fd2 a7bc 3385 39be
00000010: 51da 06be 2c21 d6bd a042 46bc ba08 e2bd
00000020: 43a5 1cbd 060d 0e3d a578 c8bd e946 f7bd
00000030: 68fb d6bd 0b43 5dbc e093 10be 1dff 08be
00000040: 15db 7b3c 6939 4ebd 2735 15be da0f 94bd
00000050: c123 02be b2df 123e 2e8d fcbd 6a6e 94bc
00000060: 9c67 b3bd 4f46 25bd 5de7 14be ecab c5bc
00000070: 18a0 673d 14aa 79be 7553 01be 0f57 fdbc
-0.08718939 -0.104843274 -0.020485936 -0.18117218 -0.13169219 -0.10455546 -0.012100846 -0.11036821
-0.038243543 0.03468039 -0.09788636 -0.12074072 -0.10497171 -0.013504754 -0.1411891 -0.13378568
0.015372057 -0.05034772 -0.14571057 -0.07229586 -0.12708952 0.14343145 -0.123316154 -0.018119056
-0.08759996 -0.040350255 -0.14541383 -0.02412983 0.05654916 -0.24381286 -0.12629493 -0.030925302

return_ratio_layer.2.weight f4 [1, 32]
00000000: a13f 9dbc 432f 9cbd cf70 533d 1996 04be
00000010: 0910 3f3d 10ec bbbb f944 23bd dfca 443d
00000020: 75a7 8e3c bb53 14be abf8 4b39 805e 243d
00000030: 9574 bcb9 022c 8c3a e42a bf3a 9627 c03d
00000040: d9c4 1abd c5c3 033e 0950 47bd 979e 5cbd
00000050: ef58 1f3d f6c6 bd3d 9be8 1a3d 6708 a03d
00000060: 0f82 8abc a50b da3a d802 7a3d 644a 3abd
00000070: 37c4 da3d e4f7 35bc e62d 5cbc 4ea0 983c
-0.01919538 -0.07626202 0.051621255 -0.12947883 0.04664615 -0.005734928 -0.0398607 0.048045035
0.017413834 -0.14485066 0.00019452225 0.040129185 -0.00035945015 0.0010694268 0.0014584926 0.093825504
-0.037785385 0.12867649 -0.04866031 -0.05386218 0.038903173 0.092664644 0.037819486 0.078141026
-0.01690772 0.001663555 0.06103787 -0.0454811 0.10681956 -0.011106465 -0.013438677 0.018631127

movement_layer.0.weight f4 [32, 64]
00000000: 4c8a 3ebd f8b2 8a3c 1a2e d83d 2032 98bb
00000010: 4017 1b3d 3adc f43d 60ba 4f3d 54e2 e9bd
00000020: 4cfb 793d 4e7d a53d 2843 99bc 40f9 e03c
00000030: 48bb 20bd 584b babc 6c67 11be d269 9fbc
00000040: 10b7 d9bd 0c6f 09bd d030 c9bc ba81 d2bd
00000050: dcfa 16bd e264 b7bd d496 c8bc 903c b0bc
00000060: eb2d 7fbb 3ccc 07bd bc04 e7bd 3cbe a03d
00000070: 1a3e c7bd 950f 27be f73e 633c e086 6cbd
00000080: 4d18 3fbd e67e a73d 1ae0 aabd a3fb 863b
00000090: 1c9d 53bd 9739 293d f029 803c f05f a6bd
000000a0: c2d6 a1bd 10db 253c f086 4a3c 4c86 5e3d
000000b0: 0653 d7bd 38f4 89bd 683f 17bd 88ff 88bc
000000c0: 90f5 2a3d fc70 f73d 64db e6bd 1baf 4fbd
000000d0: 4ea2 98bc 6498 f13d 840b 2abd 9808 92bd
000000e0: 4084 dc3b 1749 3abd bae1 96bd a4a8 773d
000000f0: 0a85 8ebd d878 fabd d8ae 0f3d 30a5 e63c
00000100: 4ccd 53bd 4e1c c5bd 1d79 00be 9f34 8a3d
00000110: a290 7abd 6095 cb3b 1f84 8d3d 91e7 943c
00000120: 40e7 26bd 6fb7 84bd 5193 d7bc 0bc1 403d
00000130: 378a 9bbb c6b7 89bd 1209 373c 7251 283d
00000140: 896f 6c3d 4885 8c3d e0ac dfbd 9dae d63c
00000150: 9ae7 dcbd 1874 45be 96fd 803c 9d88 d6bd
00000160: a7e3 3ebe b0ec 77bc 502c 903d d5d3 f4bc
00000170: 7f0c 53bd 0e92 b13d d41b e83b 3bd7 b7bd
00000180: 3d93 18bd 7d3d 79bd 0bdf c03d ef02 ebbd
00000190: f3b0 91bd 0eb5 083d ba0b a83d fbc7 74bd
000001a0: deb6 b4bd d413 37bd a91e c2bd d719 083d
000001b0: bcec f3bd 5d8d 293d 16d0 9a3d 2552 e3bd
000001c0: d414 49bd b802 31bd 1986 bdbc 9b65 43be
000001d0: 5e93 d33c 602e 213d d17f a83d 2201 0bbe
000001e0: 4455 03bd f43e c6bc 62c0 bfbd 2be9 e2bd
000001f0: 5c6c 1cbd 2a2b 9abd 8e62 5e3d ca06 b83c
00000200: 84c4 293d 7ca8 c0bd 0d57 d4bd daed 7c3d
00000210: 21ca 61bc 40c0 b2bb 7fc4 613c 5af6 543d
00000220: f0e8 8bbc feeb 073c 44e9 2abd 42c9 c53d
00000230: cb6d 4cbc cd20 443d 5cc0 0e3d 8b98 ecbc
00000240: 78c4 9e3d e435 c93d d063 e03d a1e5 97bb
00000250: ea08 94bd 24b1 babd 127f af3d d0f0 893d
00000260: 3484 6ebe 4c86 07bd 087e c1bc 76e3 813a
00000270: 68aa 133d c68f c8bd 13e0 c1bd 0dd2 94bd
00000280: 8871 2f3d 0e20 c43d 84ad 9abd 5b73 50be
00000290: c6cc 83bb da4b a2bd b49a c73d 36fc 68bd
000002a0: be01 a23d a83e f7bc 18a2 c23d 0457 4bbd
000002b0: 9c39 313c 2e43 b33d 7dfa c0bc 3595 123c
000002c0: d6de a73d 5c9b 9abd 0ebd 03bd da28 28be
000002d0: d4e7 2f3d ae2d c53d 6883 a33d e788 75bd
000002e0: 4821 dcbd 01df cfbd c050 babd 6b98 dc3c
000002f0: 7c8f 25bd 45e7 c9bd 204c 96bd 463e f0bd
00000300: 9cae dabd 7366 9c3c 1f84 ab3d b592 6e3c
00000310: b226 0bbd 30e4 413d 0d9b fdbc 8da5 1abe
00000320: b67c 0cbd dcc9 edbd 58e5 aa3d d1ea 7dbd
00000330: 4064 843c a8d4 053d 5d68 92bd 082e 6bbc
00000340: bee3 9e3d 2cae 703c de28 e53d 80e5 3bbd
00000350: 98aa e53c 9973 ccbd dd47 b0bd 0040 6a3c
00000360: 7dce 813c 50e1 793c e8c6 eebc a005 cdbc
00000370: 6223 f0bd d40e 373c 9205 d7bc 8fff a9bd
00000380: 63f2 b43d e812 bbbc b53e 593d b50d b93d
00000390: 2706 8fbd 57c8 00be cbbf e0bd 76ef e33d
000003a0: 18d2 7bbd d00a f8bd e36f bd3c 8860 0dbd
000003b0: fb56 5fbc 3466 b9bd d2ba acbd 40a7 6cbd
000003c0: c824 9abc 2e89 09be e114 7dbc 9353 afbd
000003d0: 99a7 9e3d 9c1d cd3d e4b8 a93d bc18 de3c
000003e0: 0341 12be 2d4c 1fbe 30f6 323d ac49 26bd
000003f0: d485 403d 2ae9 d73d ade7 0fbc 5c27 093e
-0.04651861 0.016931042 0.10555668 -0.0046446472 0.03786397 0.119560674 0.05071485 -0.11420122
0.06103067 0.080805406 -0.01870878 0.027462602 -0.039241105 -0.022741005 -0.14199609 -0.019459639
-0.106306195 -0.03355317 -0.024559408 -0.1027865 -0.036860332 -0.08954789 -0.024485983 -0.021513253
-0.0038937281 -0.033153757 -0.112802 0.07848784 -0.09728642 -0.16314538 0.013869992 -0.057745814
-0.046654034 0.08178501 -0.08343525 0.004119353 -0.051663503 0.041314688 0.015644997 -0.081237674
-0.0790229 0.010123029 0.012361273 0.054327294 -0.10513882 -0.06736034 -0.036925703 -0.01672341
0.041738093 0.12082097 -0.11272314 -0.050704103 -0.01863208 0.11796644 -0.04151489 -0.071305454
0.0067296326 -0.04547986 -0.07367273 0.060463563 -0.06958969 -0.1223008 0.035078853 0.02815494
-0.05170946 -0.09624539 -0.12546201 0.06748318 -0.06117309 0.0062128752 0.06909966 0.018176826
-0.04074788 -0.064803 -0.026315363 0.0470591 -0.004746701 -0.06724505 0.011171596 0.041093297
0.057723556 0.06861359 -0.10921645 0.026206309 -0.10786362 -0.19282568 0.01574592 -0.10475276
-0.1864153 -0.015132114 0.07039702 -0.029886166 -0.05152559 0.08670436 0.0070833955 -0.08976599
-0.037249792 -0.060849655 0.09417542 -0.11475169 -0.071138285 0.033375792 0.08205362 -0.05976103
-0.08823942 -0.044696644 -0.09478504 0.033227768 -0.11910388 0.04139458 0.075592205 -0.11099652
-0.04909213 -0.043215483 -0.023135232 -0.19081728 0.025827106 0.039350867 0.08227504 -0.13574651
-0.032063738 -0.02419994 -0.09362866 -0.110796295 -0.038189277 -0.07527764 0.054293208 0.022464175
0.041447178 -0.09407136 -0.10368166 0.06175027 -0.013781101 -0.005455047 0.0137797585 0.05199275
-0.017078847 0.008296011 -0.041726366 0.096575275 -0.012477349 0.047882844 0.034851417 -0.028881332
0.07752317 0.09824732 0.10956538 -0.004635528 -0.07228263 -0.09115818 0.085691586 0.067353845
-0.23292619 -0.03308706 -0.023619667 0.0009909708 0.036051184 -0.097930476 -0.09466567 -0.072666265
0.04283288 0.095764264 -0.07552627 -0.20356505 -0.0040222136 -0.07924624 0.09746304 -0.056881152
0.079104885 -0.030181244 0.09503573 -0.04964353 0.010816958 0.08753048 -0.023556942 0.008946707
0.081967995 -0.07549164 -0.03216272 -0.16421834 0.042945698 0.09627853 0.07984048 -0.059945013
-0.107485354 -0.101499565 -0.09097433 0.026928147 -0.04042004 -0.09858564 -0.073387384 -0.11730628
-0.10677835 0.01909182 0.083748095 0.014561345 -0.03397245 0.047336757 -0.030957723 -0.15102215
-0.03429862 -0.11610767 0.08344525 -0.061991517 0.016161084 0.032673508 -0.07148812 -0.014354236
0.07758282 0.014689963 0.111894354 -0.045873165 0.028035447 -0.09982986 -0.08607457 0.014297485
0.015845532 0.015251473 -0.02914758 -0.025027096 -0.11725499 0.011172969 -0.026247773 -0.08300697
0.08835294 -0.022836164 0.053038318 0.090358175 -0.06983595 -0.12576424 -0.109740816 0.11129658
-0.061479658 -0.12111437 0.02312464 -0.034515887 -0.013631578 -0.09052697 -0.08434071 -0.05777669
-0.018816367 -0.13431236 -0.015446872 -0.085608624 0.077468105 0.10015413 0.08287218 0.027111404
-0.14282613 -0.15556403 0.043691814 -0.040597603 0.04700263 0.105425194 -0.008783263 0.1339392

movement_layer.0.bias f4 [32]
00000000: 9d62 6dbd b230 b33d 4e27 653c 986d e5bd
00000010: 5230 96bd 878e 1fbe 8b39 82bd 3beb 9ebd
00000020: aed4 e4bc 0978 813d 16ab 2ebe d8a8 a5bd
00000030: 5f09 aabd d2cf 973b 814f fdbd 1301 26be
00000040: a686 0c3b e6e0 0e3d ffa1 c7bd 5d1f 24be
00000050: e500 a6bd a2fd 113d c263 c5bb c556 a33d
00000060: 33fa 9d3c 417b 54bc 31b4 08be 07d5 6a3d
00000070: fd6f f8bd 7677 393d 93ad 913c 72ed f2bc
-0.057955373 0.08749522 0.013986422 -0.11202544 -0.07333435 -0.15581714 -0.06358632 -0.077597104
-0.027933445 0.06321723 -0.17057452 -0.08088845 -0.08302569 0.0046329284 -0.1236868 -0.16211347
0.0021442561 0.03488245 -0.09747695 -0.16027589 -0.08105639 0.035642274 -0.006023855 0.07975534
0.019284343 -0.012968839 -0.13349988 0.057332065 -0.12130735 0.045279942 0.017782962 -0.029654238

movement_layer.2.weight f4 [1, 32]
00000000: 4841 a1bc a4e9 9bbd 20cb 0c3e bc49 b03b
00000010: 4b96 903d 5a3d 31bc 29c6 c6bd dc4a 7a3d
00000020: dceb 5b3b 6dff 0bbd 35be 9a3d 5568 55bc
00000030: e2f0 d83d acfe cf3a 6b78 cb3d c92b 43bc
00000040: 2f38 9f3c 3138 a53b e3c3 3cbd 7be4 88bc
00000050: f206 243c b97e 693d e4f6 c13d f564 e3bc
00000060: 81fb 9a3a 3465 d43d a4e0 ab3b db77 c7bc
00000070: 731f 2ebd d2a0 f8bc 80da a1bb fb5a d73d
-0.019684449 -0.07612923 0.13749361 0.0053798836 0.07059916 -0.01081785 -0.09705765 0.061106548
0.0033557331 -0.03417914 0.0755581 -0.013025363 0.1059282 0.0015868745 0.09935077 -0.011912295
0.01943597 0.005042099 -0.04608525 -0.01671051 0.0100114215 0.057005618 0.09470919 -0.027758101
0.0011824222 0.103708655 0.005245285 -0.024349144 -0.04251046 -0.030350123 -0.0049393773 0.105154
