fingat_model.pth (torch, 318869 bytes, 8 tensors)

fusion.fusion_layer.weight f4 [256, 48]
0.12607476 -0.13606443 0.061606105 -0.035312418 0.042575628 -0.095794246 0.0017164713 0.0018403707
0.09389389 0.020171016 0.0898067 -0.08010753 0.1571209 -0.025633348 -0.121868774 -0.089630984
0.06472838 -0.119326316 -0.1316972 0.19459732 -0.06633525 0.022673726 0.09550842 -0.103508905
0.111545764 0.04600011 0.0900534 -0.062263463 -0.18634005 -0.11078596 -0.08165748 -0.12428086
-0.06752987 0.027562851 0.0016254057 -0.15534136 0.120279685 -0.071064286 -0.12571211 0.07239357
-0.08352872 0.07839725 0.10764878 0.13043639 0.025458341 -0.06228432 0.111600496 0.10878785
-0.11674813 -0.0886892 -0.025297252 -0.07245285 0.09529126 0.12645048 0.136357 0.11023992
0.05919719 -0.10119254 -0.09429622 -0.027372325 0.05659709 0.14121902 -0.07583758 0.0015008888
0.06441985 -0.037380915 0.06722025 -0.022559997 0.09190636 0.11395724 0.05890739 0.007930435
0.043108653 -0.13175464 0.11587364 -0.07048141 -0.16851035 0.006498411 0.05696141 -0.1289611
0.10758896 0.06574986 -0.03144482 -0.09769749 -0.03254256 -0.07389423 0.1361009 -0.10017283
0.15446217 -0.08036835 -0.052772768 -0.020197986 -0.05557786 0.123473465 -0.08964494 -0.059956983
-0.050379623 0.030537788 -0.056585465 -0.10814697 -0.0033647872 -0.080575496 0.08700715 -0.03934311
0.049850874 0.042696245 -0.04772892 -0.025879467 -0.042946335 0.023775466 -0.12116447 0.06328333
-0.10658441 0.13357227 0.17799431 0.03724728 0.026839174 0.038601324 -0.117446005 0.112048686
0.108656056 0.1822402 -0.026865888 -0.12172447 0.120665744 0.11071684 0.022027638 0.15103586
-0.0709211 -0.023561077 0.15933695 0.013451912 0.10433328 -0.032732643 -0.090822585 -0.011859055
0.09922387 0.07110676 0.052095685 -0.09854384 -0.12519181 0.07076616 -0.03459505 -0.07155303
-0.06564376 -0.011168482 0.10315634 0.0047591627 0.00083591364 -0.06505792 -0.02384332 0.12319942
0.038396437 0.09260636 0.11644587 0.12649521 0.15207028 -0.08392025 -0.13972493 -0.10496676
0.010723061 0.1301126 -0.11058904 -0.024208706 0.034190536 -0.023389895 0.1320004 0.12202999
-0.029778928 -0.118993334 0.047648083 0.0046322932 -0.023290817 -0.1260132 -0.120887145 0.07972243
-0.01955121 -0.07579456 0.040033594 0.078693986 0.00601366 -0.05665395 0.020876836 0.0004357294
0.14645566 0.14332712 0.089756206 -0.07750032 -0.08946288 0.07070474 -0.10552826 -0.12157958
-0.0065226457 0.05402321 -0.04084927 0.12409111 -0.14221187 0.14072019 0.07012088 -0.067944035
0.04170021 0.1370118 -0.06094057 0.0640009 -0.069917776 0.011781053 0.062532164 0.028158067
0.13143109 0.03586336 -0.07286898 -0.10710322 0.0073856832 0.0737898 -0.011752817 0.1229303
-0.011623735 -0.01974518 0.00037807575 0.09279235 0.12744647 0.09128325 -0.12201009 0.06634603
0.10480448 -0.09698329 -0.09663789 0.07432653 0.07957355 0.08810748 0.022318754 -0.0898419
-0.031526767 -0.04114236 0.07301217 0.13395904 -0.1386009 0.07496814 -0.09801453 -0.14061688
0.09692832 0.09032169 0.011687058 -0.1016376 0.085052446 0.0428945 0.02664551 0.12666488
0.06604068 0.12711053 0.06017339 0.03286149 0.09284599 -0.09918895 -0.049479116 -0.014844987
00000000: be19 013e 7954 0bbe af56 7c3d c1a3 10bd
00000010: c863 2e3d c62f c4bd 38fb e03a 9838 f13a
00000020: 714b c03d b03d a53c 93ec b73d 6b0f a4bd
00000030: 4de4 203e 07fd d1bc 5696 f9bd 7390 b7bd
00000040: 5090 843d 5b61 f4bd a1db 06be 8544 473e
00000050: c7da 87bd 40be b93c eb99 c33d 7afc d3bd
00000060: 1b72 e43d 9d6a 3c3d eb6d b83d f907 7fbd
00000070: edcf 3ebe c0e3 e2bd 093c a7bd f786 febd
00000080: 1a4d 8abd 7dcb e13c 910b d53a ce11 1fbe
00000090: 3255 f63d 278a 91bd adba 00be 1443 943d
000000a0: 1b11 abbd bd8e a03d f776 dc3d 1e91 053e
000000b0: 038e d03c d81d 7fbd cd8e e43d 2acc de3d
000000c0: a519 efbd afa2 b5bd 2f3c cfbc 2962 94bd
000000d0: 1028 c33d 3c7c 013e 2ba1 0b3e 78c5 e13d
000000e0: c178 723d 093e cfbd 601e c1bd ed3b e0bc
000000f0: 5ad2 673d b89b 103e bc50 9bbd 79b9 c43a
00000100: 8eee 833d bb1c 19bd c5aa 893d becf b8bc
00000110: 6739 bc3d 6a62 e93d e048 713d a8ee 013c
00000120: b392 303d b0ea 06be 294f ed3d 8f58 90bd
00000130: fa8d 2cbe 9ff0 d43b 5e50 693d 610e 04be
00000140: 9a57 dc3d dda7 863d 49cc 00bd 9f15 c8bd
00000150: 594b 05bd dc55 97bd 095e 0b3e 6a27 cdbd
00000160: 552b 1e3e 2998 a4bd 4228 58bd 3f76 a5bc
00000170: 9ca5 63bd a8df fc3d c497 b7bd 7495 75bd
00000180: dd5a 4ebd 622a fa3c 29c6 67bd 297c ddbd
00000190: c383 5cbb c404 a5bd ce30 b23d 3e26 21bd
000001a0: 6e30 4c3d 42e2 2e3d 667f 43bd 2d01 d4bc
000001b0: 7fe8 2fbd c4c4 c23c 1425 f8bd b19a 813d
000001c0: ed48 dabd 2bc7 083e 2444 363e 9b90 183d
000001d0: d4dd db3c 6c1c 1e3d 8887 f0bd c879 e53d
000001e0: 1187 de3d 2d9d 3a3e da15 dcbc ae4a f9bd
000001f0: 9a1f f73d 83bf e23d 4e73 b43c 25a9 1a3e
00000200: 153f 91bd 2903 c1bc 3a29 233e 6965 5c3c
00000210: b0ac d53d aa12 06bd 3101 babd 7b4c 42bc
00000220: e235 cb3d 6ca0 913d 4962 553d 5ad1 c9bd
00000230: 4832 00be d9ed 903d 8ab3 0dbd 658a 92bd
00000240: 3c70 86bd 02fc 36bc a243 d33d c0f2 9b3b
00000250: 3721 5b3a 163d 85bd 1153 c3bc fa4f fc3d
00000260: 9545 1d3d 67a8 bd3d 2c7b ee3d f687 013e
00000270: 50b8 1b3e 61de abbd 0d14 0fbe d0f8 d6bd
00000280: c7af 2f3c 3d3c 053e 827c e2bd 5651 c6bc
00000290: 600b 0c3d 2a9c bfbc 1d2b 073e dcea f93d
000002a0: f0f2 f3bc c7b2 f3bd a32a 433d 7eca 973b
000002b0: 62cc bebc 9b09 01be ae93 f7bd 8345 a33d
000002c0: dc29 a0bc 2e3a 9bbd 44fa 233d 502a a13d
000002d0: 3d0e c53b f90d 68bd e605 ab3c 9c72 e439
000002e0: 79f8 153e 58c4 123e 1ad2 b73d 7db8 9ebd
000002f0: 5038 b7bd a6cd 903d 331f d8bd b7fe f8bd
00000300: ebbb d5bb 7147 5d3d 9051 27bd 7b23 fe3d
00000310: fd9f 11be f418 103e 899b 8f3d 3e26 8bbd
00000320: d7cd 2a3d d24c 0c3e d29c 79bd e712 833d
00000330: 0d31 8fbd 5105 413c dd10 803d bfab e63c
00000340: df95 063e 75e5 123d 553c 95bd ef58 dbbd
00000350: 9a03 f23b 1b1f 973d e38e 40bc e2c2 fb3d
00000360: 7a71 3ebc a5c0 a1bc 7838 c639 ea09 be3d
00000370: 5481 023e b6f2 ba3d 6de0 f9bd 6de0 873d
00000380: bba3 d63d 2d9f c6bd 16ea c5bd 8238 983d
00000390: 75f7 a23d b271 b43d d2d5 b63c 08ff b7bd
000003a0: 3622 01bd e484 28bd 6887 953d 8f2c 093e
000003b0: 65ed 0dbe e588 993d d8bb c8bd dffd 0fbe
000003c0: 5b82 c63d 94fa b83d 137b 3f3c 6027 d0bd
000003d0: fa2f ae3d 25b2 2f3d af47 da3c 70b4 013e
000003e0: 5640 873d 4329 023e 5f78 763d c599 063d
000003f0: 0a26 be3d 9423 cbbd 9daa 4abd 6338 73bc

fusion.fusion_layer.bias f4 [256]
0.020648498 0.122425415 -0.051764138 0.022179531 -0.12946652 -0.123437025 0.1349242 -0.026210804
-0.11439439 0.13233359 -0.019551987 0.069531135 0.067813724 -0.013690881 -0.053214524 0.10663791
0.039824944 -0.091541305 0.052817922 -0.1000053 0.100672364 -0.14226478 -0.12274478 -0.1513162
0.0039094696 0.119448684 0.09615151 -0.07758277 0.03904036 0.10702001 0.09304808 0.11350863
0.109454386 -0.017539207 0.049709212 0.085889176 0.030101296 0.10210502 0.037579868 0.033563845
0.08453864 -0.060605355 0.02211364 -0.1637842 0.020149905 -0.12736887 -0.06361475 0.04140011
0.0917451 0.035357967 0.12608589 -0.1525356 -0.08395162 0.07104562 -0.078327864 0.07094969
-0.0897547 0.052081943 0.03637944 -0.06605325 0.036756683 0.065570116 -0.0549272 -0.11993345
0.024229785 0.008824653 0.08445675 -0.016781354 -0.13418755 0.009410919 -0.05473377 0.0013423901
-0.026367145 -0.035537247 -0.027156843 0.0044746734 -0.08633311 -0.14389612 0.004499368 -0.05620351
0.124979205 -0.06231021 -0.030645693 0.082483105 -0.05215942 -0.06434728 0.05422421 -0.073847994
-0.08038123 -0.033859987 0.05808727 0.09656606 -0.12499301 -0.0632865 0.025358915 0.052709345
-0.08741228 -0.027399765 -0.021458551 -0.01587695 0.009884611 -0.12054024 -0.10168161 0.12589048
0.08750813 0.11214031 -0.057503853 -0.05605972 0.02924409 0.12282564 0.018792698 0.018263081
-0.007177417 -0.03773845 -0.13940854 0.07174376 0.0037820297 -0.011181394 -0.123315446 0.05818055
0.100411065 0.10325383 -0.10183101 -0.104376525 -0.09021965 -0.10067092 0.09280922 -0.14317912
0.031197581 -0.087995574 -0.05577922 -0.09765988 0.08472562 0.022959203 -0.046690993 0.09250444
0.096849576 0.010969084 0.0067497585 -0.1412904 -0.07681363 -0.15107311 -0.11888484 -0.021228883
0.05382706 0.04576673 -0.082665645 0.101099946 -0.027585832 -0.122248806 -0.0064556333 0.0014850834
-0.12593274 -0.103551246 0.08302791 -0.12931672 -0.00089849596 0.002112006 0.088166915 -0.0041005723
-0.08290946 -0.02128069 0.08697365 0.030864514 -0.09745556 -0.10169814 -0.14783168 0.04479827
0.10599607 0.05463254 0.109045126 -0.053687535 -0.12998445 0.08121549 0.09320606 -0.02190341
-0.1281353 0.044288386 -0.027854443 -0.09877251 0.05371062 0.0039199893 -0.113643415 -0.14064124
-0.038126223 -0.13927756 0.11199579 -0.0540591 -0.083285995 -0.022829428 -0.07538925 0.09800059
-0.020750191 -0.11182499 -0.04187625 -0.09811414 0.036509994 -0.1207824 0.037771866 -0.09203723
0.004914407 -0.1218724 -0.009759131 -0.10020315 0.007678925 -0.010100094 0.0952685 -0.011865553
0.018170675 0.012728255 -0.10625109 -0.0740435 0.012849543 -0.01150188 0.012178154 0.05257282
-0.017405737 0.10215229 -0.040724423 0.06549299 0.114020646 -0.091250636 0.0700478 0.09156922
-0.16193204 -0.0074172593 0.15558662 0.10370137 0.10556412 -0.09701336 -0.1182374 -0.015483188
0.056123015 0.08296671 -0.070077494 -0.062352903 0.017788967 -0.049263895 -0.079754785 -0.05734437
-0.115441926 -0.048428934 -0.029032769 -0.0031297796 0.07348239 -0.055058658 -0.037980825 -0.0075730137
-0.1331602 -0.15755333 -0.046259135 -0.017813489 -0.112104245 0.0044391984 -0.11516388 0.004964436
00000000: 0a27 a93c 2dba fa3d a206 54bd d9b1 b53c
00000010: df92 04be 8dcc fcbd 9229 0a3e 0ab8 d6bc
00000020: 9b47 eabd 7582 073e 7d2b a0bc 5766 8e3d
00000030: ece1 8a3d b84f 60bc 79f7 59bd fa64 da3d
00000040: 7b1f 233d 027a bbbd 9b57 583d 94cf ccbd
00000050: 502d ce3d dcad 11be 9d61 fbbd a2f2 1abe
00000060: 021b 803b 83a1 f43d 15eb c43d b7e3 9ebd
00000070: c9e8 1f3d 4f2d db3d fe8f be3d 3677 e83d
00000080: 9f29 e03d 62ae 8fbc e39b 4b3d aae6 af3d
00000090: fe96 f63c 701c d13d 59ed 193d 3e7a 093d
000000a0: 9822 ad3d 523d 78bd aa27 b53c 0cb7 27be
000000b0: 6a11 a53c fc6c 02be 7348 82bd 2993 293d
000000c0: dbe4 bb3d 84d3 103d a91c 013e 4b32 1cbe
000000d0: d4ee abbd 5e80 913d 5c6a a0bd 124e 913d
000000e0: 50d1 b7bd e053 553d 9c02 153d ed46 87bd
000000f0: 2d8e 163d a049 863d 58fb 60bd ab9f f5bd
00000100: 8b7d c63c 4795 103c a9f7 ac3d 0d79 89bc
00000110: 7668 09be 4130 1a3c 8530 60bd 23f3 af3a
00000120: e9ff d7bc 818f 11bd 0778 debc 48a0 923b
00000130: 6acf b0bd 8159 13be 6f6f 933b a735 66bd
00000140: 19f5 ff3d fe38 7fbd ad0c fbbc e7ec a83d
00000150: 1ea5 55bd 82c8 83bd 351a 5e3d 9e3d 97bd
00000160: ea9e a4bd c5b0 0abd ebec 6d3d 6dc4 c53d
00000170: 56fc ffbd 5a9c 81bd 80bd cf3c c1e5 573d
00000180: 3605 b3bd 7975 e0bc d8c9 afbc 6110 82bc
00000190: 10f3 213c cddd f6bd 733e d0bd 6fe9 003e
000001a0: 7637 b33d d2a9 e53d 2989 6bbd e19e 65bd
000001b0: 4d91 ef3c 028c fb3d 25f3 993c 759c 953c
000001c0: 8a30 ebbb a293 1abd 1dc1 0ebe 64ee 923d
000001d0: eedb 773b 2a32 37bc cf8c fcbd ba4e 6e3d
000001e0: 51a4 cd3d be76 d33d c78c d0bd 5cc3 d5bd
000001f0: 14c5 b8bd 8e2c cebd c312 be3d 8c9d 12be
00000200: 1292 ff3c 0637 b4bd c078 64bd e701 c8bd
00000210: a084 ad3d f014 bc3c 0e3f 3fbd f872 bd3d
00000220: 1259 c63d acb7 333c 142d dd3b 6eae 10be
00000230: 7750 9dbd e9b2 1abe e579 f3bd 32e8 adbc
00000240: c379 5c3d e575 3b3d 9b4c a9bd 7d0d cf3d
00000250: affb e1bc 955d fabd c789 d3bb 21a7 c23a
00000260: 83f4 00be ad12 d4bd 890a aa3d 9a6b 04be
00000270: 0b89 6bba 9569 0a3b db90 b43d 185e 86bb
00000280: 6fcc a9bd d754 aebc 3e1f b23d 94d7 fc3c
00000290: c896 c7bd 1d47 d0bd 3061 17be 647e 373d
000002a0: 7814 d93d 5fc6 5f3d 0d53 df3d 76e7 5bbd
000002b0: a51a 05be 4f54 a63d d2e2 be3d c86e b3bc
000002c0: e635 03be bd67 353d 002f e4bc 3e49 cabd
000002d0: abff 5b3d 4173 803b e1bd e8bd 4204 10be
000002e0: 3e2a 1cbd c79e 0ebe 0c5e e53d 136d 5dbd
000002f0: d991 aabd c804 bbbc ae65 9abd 89b4 c83d
00000300: 4efc a9bc 8004 e5bd 6e86 2bbd 11f0 c8bd
00000310: 818b 153d c35c f7bd acb6 1a3d 047e bcbd
00000320: 0909 a13b 3d98 f9bd c3e4 1fbc 4f37 cdbd
00000330: 7e9f fb3b dd7a 25bc 221c c33d bd67 42bc
00000340: abda 943c 2c8a 503c 2c9a d9bd 1ea4 97bd
00000350: e486 523c 6272 3cbc e186 473c 9956 573d
00000360: 7a96 8ebc 3835 d13d a7ce 26bd 3021 863d
00000370: a883 e93d 9de1 babd 3975 8f3d a588 bb3d
00000380: 83d1 25be 7b0c f3bb 1952 1f3e 6261 d43d
00000390: 0032 d83d f1ae c6bd 7326 f2bd 33ad 7dbc
000003a0: 3fe1 653d 73ea a93d ca84 8fbd c265 7fbd
000003b0: 2bba 913c f0c8 49bd 7a56 a3bd eee1 6abd
000003c0: d16c ecbd 6b5d 46bd 21d6 edbc fd1c 4dbb
000003d0: ef7d 963d 3085 61bd c891 1bbd 0b27 f8bb
000003e0: 265b 08be a955 21be 387a 3dbd 98ed 91bc
000003f0: e996 e5bd b276 913b 0adb ebbd b5ac a23b

return_ratio_layer.0.weight f4 [128, 256]
-0.054097828 -0.051073153 -0.073331505 0.019196836 0.037717365 0.04809868 0.007928578 0.01358667
-0.009121805 -0.055053227 -0.015141963 0.00851739 -0.01369882 -0.0525381 -0.0027408767 -0.03036457
-0.05335897 0.00076850073 -0.02339075 0.05836632 0.055850733 0.019314751 0.0022240675 -0.015788604
0.027254116 -0.061048284 -0.061088387 -0.06054248 -0.0055183778 0.0523937 -0.02834617 0.021648187
-0.0073305294 0.008573981 0.017042087 0.024265565 0.049437452 -0.0058850124 0.05107306 -0.033770733
-0.043643925 0.037127934 -0.056683335 -0.049739227 -0.054676093 0.02498927 -0.042564325 -0.00097446574
-0.0064783744 0.03146862 0.050002903 -0.0074760923 0.015244782 0.007055614 -0.01603394 -0.028888708
0.008683927 -0.027330061 0.039271135 -0.051160183 -0.036593016 -0.0092593795 -0.040093288 0.0051771924
0.024989106 -0.017702833 -0.06844987 0.05306778 -0.05155231 -0.03132175 -0.039222077 -0.016161129
-0.04707353 -0.022718282 0.0065726745 0.033801086 -0.056569632 -0.0060993284 -0.010725702 -0.04212127
0.0017772617 -0.012745598 -0.035222493 0.027900778 0.03664589 0.017913193 -0.03644003 0.0067255376
0.00450262 -0.0009558499 -0.06857003 -0.09784441 0.047435272 0.013610793 0.0101853665 -0.041674353
-0.044464666 -0.013781984 -0.018124962 -0.001342353 0.0023087524 0.04795178 -0.006110646 -0.048631374
-0.026177151 -0.020871408 -0.015149578 -0.011651447 0.028028479 0.019779999 -0.040767573 -0.0445461
-0.018040888 -0.06671505 0.022923961 -0.044770844 -0.043196104 0.003481294 -0.023664623 0.03131284
-0.054650903 -0.020498065 -0.019907905 0.015239583 0.058716793 5.3917658e-05 -0.002701104 -0.040448666
-0.04070495 0.022001348 0.008597725 0.058289453 -0.008458659 0.06436415 0.051621143 -0.004091413
0.03167555 0.047860004 -0.012403953 -0.008727036 0.019728012 -0.044933468 -0.009369738 0.014173821
-0.061509117 0.0037836581 0.048614793 0.011959092 0.01284051 0.0057766438 -0.07475807 0.0147078065
-0.047731474 -0.015070515 -0.024152484 -0.011379861 0.020772234 -0.04244229 -0.0009866209 -0.057468697
0.005318819 -0.055794083 -0.025651196 0.025087109 -0.0188203 -0.07221404 0.010271026 -0.0064130723
-0.0022639872 -0.018562444 -0.047260307 -0.056927696 -0.019810252 0.04217685 -0.029870335 -0.06526154
-0.02024974 -0.06297955 0.005555637 0.045793846 -0.070670106 0.014497393 -0.047864698 -0.037090916
0.049688958 0.05476001 -0.05200509 0.028495315 0.035256207 -0.04245323 -0.061746784 0.005076386
-0.02962252 -0.029001016 0.0041107205 -0.012235685 0.04698681 0.025704654 -0.04102158 -0.011092044
0.01696992 -0.0022675022 0.021238297 -0.073001936 -0.06717505 -0.029301783 -0.039765116 0.002355624
0.057205424 -0.0125149945 0.05877714 0.0017280281 -0.013113834 0.031082796 -0.025490813 -0.0028375995
-0.031608954 -0.012352075 0.056508783 0.0038727403 0.0063762553 0.018719457 -0.03973337 -0.0024443634
0.032404907 -0.016796822 -0.086425416 -0.0076069618 -0.019098306 0.059293583 0.032607913 0.031384278
-0.023767017 0.04464415 -0.03748252 0.010704547 0.04658264 0.026841037 0.012251616 0.057681106
0.042793587 -0.03627601 0.02481072 -0.004430452 -0.012477416 -0.055049233 0.024042858 -0.054696843
-0.029042736 0.010167457 0.038918685 -0.038499847 -0.024688724 -0.042518694 0.045284793 0.061838306
00000000: af95 5dbd 1532 51bd d42e 96bd af42 9d3c
00000010: 867d 1a3d 1f03 453d dee6 013c a09a 5e3c
00000020: a073 15bc 7e7f 61bd ff15 78bc 868c 0b3c
00000030: 0471 60bc 3132 57bd 48a0 33bb 1ebf f8bc
00000040: ef8e 5abd 3675 493a f59d bfbc 8611 6f3d
00000050: bdc3 643d f839 9e3c a9c1 113b 1a57 81bc
00000060: 0644 df3c c40d 7abd d137 7abd 64fb 77bd
00000070: 82d3 b4bb c79a 563d 3a36 e8bc 8a57 b13c
00000080: f034 f0bb e279 0c3c d99b 8b3c 94c8 c63c
00000090: ed7e 4a3d 10d7 c0bb fc31 513d 2e53 0abd
000000a0: f9c3 32bd 7613 183d c92c 68bd 5cbb 4bbd
000000b0: 0af4 5fbd 4cb6 cc3c ee57 2ebd 4a73 7fba
000000c0: 8b48 d4bb 3de5 003d d8cf 4c3d 02fa f4bb
000000d0: 40c5 793c c832 e73b 9c59 83bc 03a8 ecbc
000000e0: 0847 0e3c 4be3 dfbc c5da 203d 578d 51bd
000000f0: 8fe2 15bd a7b4 17bc dc38 24bd 70a5 a93b
00000100: f4b5 cc3c 8805 91bc 722f 8cbd 9a5d 593d
00000110: 8428 53bd 3c4b 00bd 54a7 20bd 5864 84bc
00000120: 2cd0 40bd b11b babc 975f d73b 0273 0a3d
00000130: 8fb5 67bd e0dc c7bb dbba 2fbc 5a87 2cbd
00000140: 02f3 e83a ead2 50bc 7645 10bd 2c90 e43c
00000150: 001a 163d b0be 923c 2442 15bd e661 dc3b
00000160: b78a 933b 0092 7aba 726e 8cbd a662 c8bd
00000170: 7d4b 423d ceff 5e3c 86e0 263c bab2 2abd
00000180: 9520 36bd d5cd 61bc cd7a 94bc e4f1 afba
00000190: 704e 173b 1669 443d d03b c8bb b131 47bd
000001a0: 7771 d6bc 84fa aabc f035 78bc b6e5 3ebc
000001b0: fb9b e53c aa09 a23c e6fb 26bd f975 36bd
000001c0: 7cca 93bc e6a1 88bd 08cb bb3c a261 37bd
000001d0: 66ee 30bd 6c26 643b 50dc c1bc e441 003d
000001e0: a0d9 5fbd 8feb a7bc e715 a3bc 72af 793c
000001f0: 0581 703d a525 6238 0105 31bb 80ad 25bd
00000200: 3cba 26bd 2c3c b43c 79dd 0c3c ecc0 6e3d
00000210: 3096 0abc 5ad1 833d b170 533d 4311 86bb
00000220: 39be 013d da08 443d f339 4bbc d8fb 0ebc
00000230: a49c a13c 280c 38bd 8883 19bc 5039 683c
00000240: fcf0 7bbd 40f7 773b 4e20 473d 11f0 433c
00000250: 0161 523c 004a bd3b c21a 99bd 03f9 703c
00000260: 1482 43bd 52ea 76bc 6edb c5bc 9972 3abc
00000270: 882a aa3c f7d7 2dbd 8151 81ba 4c64 6bbd
00000280: 7d49 ae3b 5688 64bd 7522 d2bc 7b83 cd3c
00000290: 082d 9abc f4e4 93bd ce47 283c c024 d2bb
000002a0: 675f 14bb 4410 98bc 0694 41bd 042d 69bd
000002b0: 1c49 a2bc a2c1 2c3d a2b2 f4bc d8a7 85bd
000002c0: c8e2 a5bc 6cfb 80bd 100c b63b 5492 3b3d
000002d0: 7dbb 90bd 7986 6d3c c60d 44bd a5ec 17bd
000002e0: a686 4b3d 084c 603d 4a03 55bd 026f e93c
000002f0: d068 103d 70e3 2dbd 32ea 7cbd d057 a63b
00000300: edaa f2bc 8a93 edbc 39b3 863b 2f78 48bc
00000310: 3e75 403d 9192 d23c 3f06 28bd 68bb 35bc
00000320: 8004 8b3c 609a 14bb f0fb ad3c 0a82 95bd
00000330: 1393 89bd 4b0a f0bc bfe0 22bd d060 1a3b
00000340: 3c50 6a3d b10b 4dbc 4cc0 703d 007f e23a
00000350: 68db 56bc 59a1 fe3c 1cd2 d0bc 05f7 39bb
00000360: 6478 01bd 5c60 4abc c175 673d cdcd 7d3b
00000370: e8ef d03b 8c59 993c 75bf 22bd 9d31 20bb
00000380: 02bb 043d 7d99 89bc cfff b0bd d243 f9bb
00000390: 0d74 9cbc d4dd 723d e08f 053d cd8c 003d
000003a0: 0cb3 c2bc c9dc 363d 4587 19bd 2062 2f3c
000003b0: 70cd 3e3d bce1 db3c 01bb 483c 0643 6c3d
000003c0: 5448 2f3d 2796 14bd da3f cb3c 532d 91bb
000003d0: 136e 4cbc 4e7b 61bd 87f5 c43c cc09 60bd
000003e0: 08eb edbc 6895 263c 3369 1f3d 04b2 1dbd
000003f0: 0240 cabc 1528 2ebd 8c7c 393d 2a4a 7d3d

return_ratio_layer.0.bias f4 [128]
-0.012677905 -0.028481219 -0.055987585 0.07837303 -0.06787956 -0.015712116 -0.017529197 -0.051668983
-0.03992355 0.0016574803 -0.010522547 -0.028733939 -0.027922139 0.014372647 -0.04580986 -0.06437971
-0.02285956 0.030195523 0.05309047 -0.058431268 -0.016856488 -0.06331413 0.025976384 -0.01149523
0.11491661 -0.024362208 -0.01773073 -0.051861152 -0.04082527 -0.027455416 -0.04153509 0.015207524
0.0057426267 -0.019379057 -0.015847204 -0.03445401 -0.008186688 0.054679215 -0.04862655 -0.05072699
0.025759565 0.093437836 -0.040539213 -0.07057779 0.06876774 0.0035613806 -0.009945954 -0.0052525145
-0.05193219 -0.0074586067 -0.07231771 -0.049552195 -0.016228603 -0.053094514 -0.030902898 -0.020880572
-0.06261523 0.0021210066 0.12098322 -0.021805406 0.019870456 0.014582485 -0.05804 -0.06062394
0.0012553968 0.09913233 -0.035850268 -0.06873782 -0.019937404 -0.050336026 -0.08420872 -0.028249638
-0.06602321 0.10154704 0.08029701 -0.052924663 0.0003650734 -0.08164001 -0.027862357 0.0015525327
0.010668895 -0.044752922 -0.07114892 0.032129724 -0.04052773 -0.035029836 -0.037704337 0.0024877924
0.08037637 -0.032002475 0.041124888 0.04436362 -0.07827442 -0.085545644 0.03687212 -0.06513476
-0.054794047 -0.048180882 -0.07365856 -0.068538524 0.08835514 0.04471653 -0.04325011 -0.037088487
-0.079010874 0.038814586 0.033249803 -0.006937826 -0.0796548 -0.057058856 0.0380338 -0.07415698
-0.05825898 -0.03458102 -0.08069108 0.05785193 -0.078041755 0.03044026 -0.004778921 -0.055249516
0.049030602 -0.055894352 -0.043260217 -0.07636898 0.05557941 -0.041879483 0.021509498 -0.05559315
00000000: fdb6 4fbc 7251 e9bc 3d53 65bd 0a82 a03d
00000010: 7004 8bbd b2b6 80bc 6499 8fbc dba2 53bd
00000020: e086 23bd cf3f d93a c366 2cbc 7063 ebbc
00000030: f8bc e4bc 407b 6b3c 1fa3 3bbd 82d9 83bd
00000040: f943 bbbc 9a5c f73c 6575 593d a055 6fbd
00000050: 9e16 8abc d7aa 81bd 6dcc d43c 7d56 3cbc
00000060: 6659 eb3d 4193 c7bc 0940 91bc 5c6c 54bd
00000070: 6638 27bd 2eea e0bc b320 2abd fb28 793c
00000080: a52c bc3b d4c0 9ebc ffd1 81bc a61f 0dbd
00000090: 7521 06bc 50f7 5f3d a22c 47bd 1bc7 4fbd
000000a0: b905 d33c 565c bf3d 720c 26bd 178b 90bd
000000b0: 1ad6 8c3d 0d66 693b 5bf4 22bc 491d acbb
000000c0: d9b6 54bd 5467 f4bb 4f1b 94bd 3ef7 4abd
000000d0: d9f1 84bc a279 59bd 1328 fdbc bc0d abbc
000000e0: 6a3c 80bd 9600 0b3b 0dc6 f73d 40a1 b2bc
000000f0: 5ec7 a23c 60eb 6e3c 5abb 6dbd cf50 78bd
00000100: 208c a43a e405 cb3d bbd7 12bd 6ac6 8cbd
00000110: c453 a3bc 262d 4ebd 9f75 acbd c96b e7bc
00000120: 2d37 87bd e5f7 cf3d c272 a43d 88c7 58bd
00000130: 5367 bf39 e132 a7bd 993f e4bc 5a7e cb3a
00000140: 97cc 2e3c d74e 37bd 86b6 91bd 759a 033d
00000150: 6800 26bd 727b 0fbd dd6f 1abd 3b0a 233b
00000160: 5e9c a43d 0715 03bd 9272 283d a1b6 353d
00000170: 574e a0bd 8e32 afbd 3807 173d 6065 85bd
00000180: b96f 60bd 5159 45bd 4dda 96bd ed5d 8cbd
00000190: 8af3 b43d ae28 373d 0727 31bd 19ea 17bd
000001a0: 74d0 a1bd 0bfc 1e3d f230 083d b456 e3bb
000001b0: 0e22 a3bd 8cb6 69bd 54c9 1b3d 9ddf 97bd
000001c0: f8a0 6ebd d4a4 0dbd 5d41 a5bd 25f6 6c3d
000001d0: 5bd4 9fbd da5d f93c 7f98 9cbb 514d 62bd
000001e0: 50d4 483d 7af1 64bd a031 31bd 5767 9cbd
000001f0: 3ca7 633d d289 2bbd b034 b03c a5b5 63bd

return_ratio_layer.2.weight f4 [1, 128]
0.031960055 -0.019623177 -0.010518456 0.07974619 0.026152566 0.0056463866 -0.013606119 -0.011436235
-0.0035644767 0.0019314063 0.007524442 0.030180475 0.09484462 0.022127327 -0.0011704311 0.019900765
-0.009868914 0.016229909 -0.028615113 -0.051341258 -0.016528284 0.057547193 0.05787358 0.008944231
-0.005495793 0.0043362183 -0.05450607 0.0040475936 -0.017154803 -0.0058194823 -0.0590687 0.0067746094
-0.0116644865 -0.0005621277 0.0047014477 -0.027149037 -0.0007525293 0.013671741 -0.028376104 0.0031452773
0.003152477 0.068890736 0.00623637 -0.0003784737 0.00820623 0.04062704 0.011765534 0.0032703015
-0.0031564974 -0.061686434 0.013138965 -0.029738149 -0.0033667388 0.0022974443 -0.015926981 0.0056190086
-0.0038442104 0.03675232 0.08530947 -0.03931137 -0.0013054592 -0.005228462 0.049541038 0.0016874279
0.002914448 -0.008404828 -0.03226888 0.016807128 -0.048980385 -0.00062614644 -0.008151306 0.006636904
-0.09292733 -0.019564515 0.062147256 0.07868656 0.0001694183 -0.06342536 0.009019763 -0.03149744
0.07012511 0.039453633 -0.009995014 0.0016839459 0.002299995 -0.0009020471 0.011238379 0.00063460006
-0.012699433 0.0349806 -0.013821295 -0.013207963 -0.002958088 0.0024805225 0.033150267 -0.003356593
0.008398251 0.023080992 -0.0415633 -0.042554412 -0.023044715 0.02932878 0.022906529 -0.014416492
0.04667556 -0.026179112 -0.008660423 0.010988107 0.057801824 0.06159175 -0.0032849768 0.005922109
-0.023113696 0.032459665 0.0021192618 -0.01154668 0.0019337601 0.008965659 -0.017554551 -0.029055236
-0.0015717851 -0.044001866 -0.035411403 0.05859474 0.0065165707 -0.0018595398 0.037193883 0.00057370163
00000000: 8ce8 023d c9c0 a0bc 9a55 2cbc f851 a33d
00000010: e83d d63c 5305 b93b 33ec 5ebc 0c5f 3bbc
00000020: ff99 69bb 3e27 fd3a 988f f63b 0b3d f73c
00000030: e53d c23d 5e44 b53c 2769 99ba ee06 a33c
00000040: 3ab1 21bc 96f4 843c 3e6a eabc 364b 52bd
00000050: 5366 87bc 9bb6 6b3d d90c 6d3d d38a 123c
00000060: 0e16 b4bb d616 8e3b c241 5fbd ada1 843b
00000070: 3b88 8cbc 5bb1 bebb 05f2 71bd 8bfd dd3b
00000080: 671c 3fbc c05b 13ba 9a0e 9a3b a867 debc
00000090: 6345 45ba 70ff 5f3c 0175 e8bc ff20 4e3b
000000a0: ca99 4e3b 9616 8d3d 775a cc3b e16d c6b9
000000b0: 6c73 063c 8a68 263d 3ac4 403c 8e52 563b
000000c0: 3ddd 4ebb eaaa 7cbd d044 573c 6b9d f3bc
000000d0: 81a4 5cbb b890 163b 4d79 82bc a91f b83b
000000e0: 26ef 7bbb 9a89 163d bbb6 ae3d f604 21bd
000000f0: f11b abba 8553 abbb 8beb 4a3d af2c dd3a
00000100: 5300 3f3b 67b4 09bc 602c 04bd 1aaf 893c
00000110: a89f 48bd fa23 24ba 0e8d 05bc 637a d93b
00000120: af50 bebd c345 a0bc 1f8e 7e3d 6b26 a13d
00000130: e1a5 3139 28e5 81bd a1c7 133c 7603 01bd
00000140: c19d 8f3d 229a 213d 21c2 23bc d9b7 dc3a
00000150: 83bb 163b 5b77 6cba 2e21 383c 4a5b 263a
00000160: 4811 50bc d147 0f3d b772 62bc 3666 58bc
00000170: 7bdc 41bb 4390 223b 93c8 073d 49fa 5bbb
00000180: d198 093c 5914 bd3c 473e 2abd 894d 2ebd
00000190: 45c8 bcbc e942 f03c 79a6 bb3c 2633 6cbc
000001a0: df2e 3f3d 9475 d6bc 72e4 0dbc 7607 343c
000001b0: 9bc1 6c3d a147 7c3d c448 57bb 400e c23b
000001c0: ef58 bdbc 6df4 043d 50e3 0a3b 492e 3dbc
000001d0: 3976 fd3a b3e4 123c 90ce 8fbc 3f05 eebc
000001e0: 5b04 ceba 4d3b 34bd 8c0b 11bd 0a01 703d
000001f0: f588 d53b cdbb f3ba 9d58 183d 7764 163a

movement_layer.0.weight f4 [128, 256]
0.023780514 -0.05800293 0.03652505 -0.07633522 -0.053879395 -0.026209144 -0.03850001 -0.030495191
0.002407208 0.042636797 -0.0042965673 0.051195804 0.05658021 -0.025394222 -0.05843902 -0.04390923
-0.014692716 -0.051202413 -0.0012503088 0.0345251 0.045516193 0.05251553 -0.063240364 0.0126154255
0.008038465 0.015578762 -0.026338616 -0.04896002 0.049507186 -0.037081245 0.035275433 -0.03817711
-0.033655606 -0.07105367 -0.034312036 0.007127657 -0.052033395 -0.040620547 0.0019468144 -0.020294147
-0.034273274 -0.043520972 -0.030893376 0.02372757 0.00828866 -0.042280335 -0.026102467 0.028706769
0.029408077 -0.06664282 -0.00019052866 0.027900912 0.061808527 0.012136834 0.0038340972 -0.04843122
-0.031378306 0.048910163 -0.05378245 0.094152786 0.06524456 -0.034006447 0.029426552 0.008284673
-0.020012941 -0.004105009 0.044295456 0.046814207 -0.010595723 0.020199599 0.030970285 -0.015204869
-0.05573482 0.042941403 0.015313133 -0.017573193 -0.039628144 0.008091927 -0.030253088 -0.015512756
-0.004585721 0.02824016 0.06161684 -0.022854311 -0.003411433 -0.039566047 0.016954554 0.04197227
0.01664038 -0.035260797 0.009102083 -0.025834447 0.035940453 -0.03888067 0.009354811 0.024212359
-0.03257351 0.0124035375 -0.038090523 -0.0128038665 -0.0019513938 0.04759174 0.0059291497 0.0035317915
0.024918301 0.043923598 -0.040752187 0.06069183 0.02909659 0.023725782 -0.044230957 -0.03375936
-0.017684937 -0.034554195 0.04406855 0.038744576 -0.021055402 -0.054325588 -0.043800972 -0.017168771
-0.033506494 0.069847174 -0.052867714 -0.0011294993 -0.06449534 3.7521546e-05 -0.0055295704 0.022650763
0.05331307 0.061839566 0.03213661 0.053968605 -0.02623409 -0.044657696 -0.0099423 -0.05004688
0.0044597583 0.05495926 -0.053706884 -0.05663353 0.026484534 -0.041708827 0.03842403 0.04718838
-0.06784768 0.024403773 0.035755113 -0.018184284 0.044510245 -0.02210097 -0.07442173 0.0048895995
-0.015620887 0.019156788 0.025709383 0.06430347 -0.05206502 -0.039821647 -0.041976605 0.0030123144
0.058184333 -0.06483487 -0.057831466 0.011943011 -0.003906619 -0.038579926 -0.009963001 0.029055819
0.018869461 -0.0021679327 -0.082972854 -0.04296853 0.000108771026 -0.02441607 -0.0040620365 -0.124173954
0.011255972 0.008479426 0.05121416 -0.02538196 -0.081382066 -0.19552238 -0.005444297 -0.0638021
-0.0411671 -0.0540021 0.0060046185 0.04622482 -0.0112494 -0.014471399 0.031928033 -0.10331721
0.0020600865 0.007160416 -0.0325596 -0.018418403 -0.0015419434 0.035929527 0.04355061 0.03537803
0.0075545814 0.043200843 0.04682961 -0.028922372 -0.07370551 0.03510519 -0.015591494 0.016516192
-0.008677572 0.026446545 0.04381004 0.011951635 -0.0002571282 -0.01709149 0.04777869 0.04523921
-0.019249287 0.042921815 -0.04442314 0.047888797 -0.045882903 0.034814052 -0.00966111 -0.05380359
0.007610402 -0.060533326 -0.07378408 -0.06426402 -0.066099904 -0.00040097535 -0.00973095 -0.10453813
-0.013630754 -0.03965584 -0.03684035 0.0029366463 -0.0045359773 -0.036746565 -0.03392435 -0.035477273
-0.018180262 0.06765521 -0.029474465 0.017149417 0.045443 0.005568698 -0.029219424 -0.028535306
0.03430544 0.039805453 -0.04674006 0.053210977 -0.013196413 -0.0009136464 -0.025099356 0.042293973
00000000: 5acf c23c 7b94 6dbd 4a9b 153d a455 9cbd
00000010: a4b0 5cbd 8fb4 d6bc 30b2 1dbd 0dd1 f9bc
00000020: 40c2 1d3b eca3 2e3d 38ca 8cbb b1b2 513d
00000030: a6c0 673d 8b07 d0bc c15d 6fbd 2ada 33bd
00000040: b8b9 70bc 9fb9 51bd 67e1 a3ba 316a 0d3d
00000050: 306f 3a3d 861a 573d 2a84 81bd eeb0 4e3c
00000060: c4b3 033c 103e 7f3c 15c4 d7bc 4d8a 48bd
00000070: 0cc8 4a3d 81e2 17bd f97c 103d 9a5f 1cbd
00000080: 76da 09bd 9684 91bd c78a 0cbd 1f8f e93b
00000090: f820 55bd bb61 26bd 402c ff3a e93f a6bc
000000a0: 2262 0cbd 0c43 32bd 1b14 fdbc 5260 c23c
000000b0: 29cd 073c 252e 2dbd d7d4 d5bc 752a eb3c
000000c0: 35e9 f03c 087c 88bd a6c8 47b9 7490 e43c
000000d0: f02a 7d3d 92d9 463c 7a45 7b3b d15f 46bd
000000e0: 8a86 00bd 0656 483d fc4a 5cbd 2dd3 c03d
000000f0: f19e 853d 584a 0bbd f40f f13c 70bc 073c
00000100: 2ef2 a3bc 5083 86bb 276f 353d 41c0 3f3d
00000110: af99 2dbc a179 a53c 65b5 fd3c d81d 79bc
00000120: 324a 64bd 53e3 2f3d efe3 7a3c a8f5 8fbc
00000130: 1f51 22bd 0094 043c 53d5 f7bc 3729 7ebc
00000140: d143 96bb e857 e73c f161 7c3d f738 bbbc
00000150: 5992 5fbb 0210 22bd 47e4 8a3c 1deb 2b3d
00000160: 6851 883c a06d 10bd e720 153c c3a2 d3bc
00000170: 4c36 133d 5641 1fbd ec44 193c ff58 c63c
00000180: cd6b 05bd 3538 4b3c cf04 1cbd 4fc7 51bc
00000190: e9c5 ffba 8eef 423d 5049 c23b a175 673b
000001a0: 7721 cc3c 3be9 333d c4eb 26bd ff97 783d
000001b0: f95b ee3c 925c c23c 852b 35bd 4147 0abd
000001c0: 00e0 90bc b388 0dbd 3981 343d a2b2 1e3d
000001d0: 617c acbc 8284 5ebd a668 33bd 86a5 8cbc
000001e0: 1b3e 09bd 090c 8f3d d18b 58bd b50b 94ba
000001f0: 2216 84bd 7460 1d38 6631 b5bb 188e b93c
00000200: ce5e 5a3d 7c4b 7d3d aea1 033d 2f0e 5d3d
00000210: e0e8 d6bc fdea 36bd 07e5 22bc f5fd 4cbd
00000220: 2a23 923b f61c 613d c0fb 5bbd 8ff8 67bd
00000230: 18f6 d83c e0d6 2abd 8462 1d3d 9a48 413d
00000240: b9f3 8abd 6cea c73c f473 123d 35f7 94bc
00000250: 6050 363d 180d b5bc 6c6a 98bd ef38 a03b
00000260: c0ee 7fbc b2ee 9c3c 7c9c d23c 8ab1 833d
00000270: 2142 55bd 061c 23bd a9ef 2bbd 406a 453b
00000280: b252 6e3d 25c8 84bd b0e0 6cbd 9eac 433c
00000290: 1803 80bb fc05 1ebd db3b 23bc 7806 ee3c
000002a0: 2194 9a3c e013 0ebb aced a9bd c5ff 2fbd
000002b0: 001c e438 3604 c8bc d51a 85bb ea4e febd
000002c0: f86a 383c 4aed 0a3c f0c5 513d d4ed cfbc
000002d0: a4ab a6bd 0537 48be 1366 b2bb adaa 82bd
000002e0: d59e 28bd 4e31 5dbd 64c2 c43b 3d56 3d3d
000002f0: 674f 38bc 7219 6dbc f8c6 023d f997 d3bd
00000300: 8402 073b eca1 ea3b 375d 05bd 31e2 96bc
00000310: 091b caba d72a 133d 2062 323d 8ee8 103d
00000320: 6c8c f73b 5ef3 303d 68d0 3f3d 9cee ecbc
00000330: eaf2 96bd 76ca 0f3d 7773 7fbc f74c 873c
00000340: 602c 0ebc 6da6 d83c 2872 333d cad0 433c
00000350: 2acf 86b9 7403 8cbc 96b3 433d c04c 393d
00000360: aeb0 9dbc c9ce 2f3d 0af5 35bd 0b27 443d
00000370: b6ef 3bbd 2e99 0e3d a249 1ebc 2761 5cbd
00000380: ae60 f93b cbf1 77bd 1c1c 97bd db9c 83bd
00000390: 635f 87bd 003a d2b9 906e 1fbc 1618 d6bd
000003a0: 8753 5fbc 296e 22bd e8e5 16bd c074 403b
000003b0: 89a2 94bb 9183 16bd 42f4 0abd 9e50 11bd
000003c0: c6ee 94bc d18e 8a3d 6f74 f1bc ef7c 8c3c
000003d0: 7022 3a3d a079 b63b 935d efbc e0c2 e9bc
000003e0: dc83 0c3d 0b0b 233d 8172 3fbd c1f3 593d
000003f0: c535 58bc c681 6fba 2a9d cdbc 723c 2d3d

movement_layer.0.bias f4 [128]
-0.011898993 -0.036934514 -0.045400254 -0.06087447 0.061110273 -0.05153408 0.046582155 -0.072151266
-0.007209947 -0.052023567 -0.06269834 -0.03531116 -5.213164e-05 -0.03314333 -0.055738505 -0.003530462
-0.016459621 0.006825739 -0.08591421 -0.026873434 -0.012523434 -0.065758355 -0.0037058704 -0.041392587
-0.04504898 -0.05017296 0.0008828762 0.023320088 -0.02084001 -0.06763396 -0.08021386 -0.023238782
-0.002958072 -0.008403239 -0.057736285 -0.08066759 -0.008682932 0.0011931381 -0.034895815 -0.050248984
-0.059573628 -0.020621017 0.034042995 -0.022624128 0.003414366 -0.04311058 -0.072932124 -0.029126555
0.0086409785 -0.05248395 -0.03743619 -0.010310579 -0.011111354 -0.03530613 -0.036700286 -0.037382685
-0.049941093 0.030148473 -0.028378285 -0.053490404 -0.050493672 -0.0052884417 -0.072111666 -0.05670711
-0.0324123 -0.0027261893 -0.011397028 -0.0067471247 -0.027392035 -0.046433102 -0.035649054 -0.042700782
-0.035803292 -0.0053493073 -0.08035267 -0.06527571 -0.031418264 -0.042647947 -0.0171468 -0.0471167
0.0067893523 -0.01573128 -0.042808056 -0.039122436 -0.048670635 0.03072072 -0.068425484 -0.0039143665
0.00037750514 0.024766978 -0.07392739 -0.06921025 0.0076698195 -0.051062983 -0.048350994 -0.019107858
-0.015978232 -0.016647987 -0.039339565 0.00291248 0.014432696 0.000613458 -0.03336037 -0.055754386
0.0029274917 0.056073535 -0.03272983 -0.035093963 -0.027099758 -0.016015662 -0.03725517 -0.009166757
-0.04398758 -0.06461598 0.05730846 0.014116827 0.03442214 -0.010259246 -0.06633438 0.019419676
-0.04549129 -0.0820432 -0.014400594 -0.026844176 -0.037280474 0.052716818 -0.02553947 -0.032541353
00000000: fef3 42bc a548 17bd 9ef5 39bd 8257 79bd
00000010: c44e 7a3d 6615 53bd eecc 3e3d 0bc4 93bd
00000020: 6b41 ecbb aa16 55bd fd67 80bd 6fa2 10bd
00000030: eca7 5ab8 4dc1 07bd 0f4e 64bd 535f 67bb
00000040: 54d6 86bc 73aa df3b caf3 afbd ad25 dcbc
00000050: 172f 4dbc 51ac 86bd 30de 72bb 468b 29bd
00000060: 4785 38bd 2982 4dbd d270 673a c509 bf3c
00000070: abb8 aabc ac83 8abd 2a47 a4bd 425f bebc
00000080: 36dc 41bb bdad 09bc e27c 6cbd 0d35 a5bd
00000090: db42 0ebc 1263 9c3a eaee 0ebd e1d1 4dbd
000000a0: 7a03 74bd 68ed a8bc ab70 0b3d 3c56 b9bc
000000b0: 8ec3 5f3b b894 30bd 705d 95bd d09a eebc
000000c0: e492 0d3c 69f9 56bd b156 19bd b4ed 28bc
000000d0: 660c 36bc 299d 10bd 0a53 16bd 961e 19bd
000000e0: 088f 4cbd eef9 f63c 9479 e8bc c118 5bbd
000000f0: 74d2 4ebd aa4a adbb 48af 93bd b745 68bd
00000100: c3c2 04bd dea9 32bb 9aba 3abc fc16 ddbb
00000110: 4365 e0bc a330 3ebd be04 12bd 04e7 2ebd
00000120: 79a6 12bd 3e49 afbb f18f a4bd 45af 85bd
00000130: 70b0 00bd 9daf 2ebd 7277 8cbc 71fd 40bd
00000140: 3779 de3b e3de 80bc 8057 2fbd d93e 20bd
00000150: dc5a 47bd 05aa fb3c a922 8cbd 1644 80bb
00000160: e2eb c539 1ee4 ca3c 3e67 97bd 1bbe 8dbd
00000170: 1c53 fb3b 6b27 51bd b10b 46bd 1588 9cbc
00000180: c8e4 82bc 5c61 88bc 8622 21bd 4edf 3e3b
00000190: 1d77 6c3c 78d0 203a e2a4 08bd b65e 64bd
000001a0: 29db 3f3b 5dad 653d b70f 06bd b0be 0fbd
000001b0: 5000 debc 4733 83bc e198 18bd 2a30 16bc
000001c0: 522c 34bd 6255 84bd 47bc 6a3d 444a 673c
000001d0: 3bfe 0c3d 6616 28bc 52da 87bd 0316 9f3c
000001e0: 1355 3abd 4406 a8bd 78f0 6bbc 51e8 dbbc
000001f0: 69b3 18bd 97ed 573d 2738 d1bc 154a 05bd

movement_layer.2.weight f4 [1, 128]
0.016653528 0.007216349 -0.028490685 0.08368285 -0.09639365 -0.009763423 -0.04351301 0.07488292
0.017658334 -0.038859326 0.07093537 -0.039908126 0.01811042 -0.01717769 0.06336838 0.0083894925
-0.0112863695 -0.0060301954 -0.027425664 0.009390521 0.05708386 -0.02636371 -0.037121702 -0.0098516075
0.024723584 0.014174075 -0.038315073 -0.06188782 0.0042962884 -0.060661122 0.010412002 0.059972703
-0.021646788 -0.040498782 0.017561449 0.004459343 0.0021906516 -0.013308358 -0.037457783 0.035075027
0.011452415 -0.07360736 -0.042703196 0.019272646 -0.00046087377 -0.06259141 0.067967355 0.07703695
0.0021849333 0.0006551272 -0.0039436086 0.03497458 0.04320985 0.043371033 -0.008254933 0.007440931
0.010449624 -0.0070345197 0.005966877 -0.019607937 -0.03775784 0.012376429 0.0034525655 0.02733706
0.01873371 0.004446782 0.024630588 -0.034403108 -0.02496814 0.036422607 0.004144717 0.06168042
0.020923665 -0.025533698 -0.06809368 -0.025941016 -0.031154878 -0.020978432 -0.052061636 0.04999622
0.003677087 0.063013785 -0.0086482065 0.05301489 -0.014739869 -0.0057376456 -0.041508034 -9.018743e-05
-0.048926983 -0.0059579895 0.04215032 -0.046833303 -0.0017637081 -0.059372842 -0.054345816 -0.025479728
0.07619314 0.0015143461 0.0024563102 -0.029370168 -0.008292626 -0.06637466 -0.05176339 -0.030590111
0.019713929 0.04866919 0.032980464 -0.006431875 -0.013623891 0.0047279233 0.007699129 -0.029964913
-0.0053021763 -0.061058465 0.07404635 -0.0041630436 -0.017100604 0.0011660287 -0.036771726 0.002939444
0.013985208 -0.019465905 -0.00010193996 0.03503864 -0.045831054 0.051322106 -0.0008914714 -0.025557462
00000000: fb6c 883c 1f77 ec3b 4c65 e9bc ea61 ab3d
00000010: 096a c5bd c4f6 1fbc b33a 32bd 375c 993d
00000020: 36a8 903c f52a 1fbd 9046 913d b476 23bd
00000030: 4e5c 943c 3ab8 8cbc 48c7 813d 1574 093c
00000040: 77ea 38bc f298 c5bb c9ab e0bc b3da 193c
00000050: c4d0 693d b5f8 d7bc ed0c 18bd a368 21bc
00000060: 1d89 ca3c 613a 683c 44f0 1cbd 157e 7dbd
00000070: e1c7 8c3b cc77 78bd 1a97 2a3c f0a5 753d
00000080: 9b54 b1bc 0de2 25bd 07dd 8f3c ae1f 923b
00000090: 0991 0f3b 4d0b 5abc 556d 19bd d5aa 0f3d
000000a0: e9a2 3b3c 75bf 96bd 8ce9 2ebd abe1 9d3c
000000b0: 6ea1 f1b9 ed2f 80bd 7832 8b3d 8cc5 9d3d
000000c0: 1931 0f3b d8bc 2b3a 6339 81bb 8141 0f3d
000000d0: d0fc 303d d3a5 313d b33f 07bc 0ed3 f33b
000000e0: e634 2b3c d481 e6bb cb85 c33b d3a0 a0bc
000000f0: f7a7 1abd 81c6 4a3c 7044 623b f8f1 df3c
00000100: 7077 993c 50b6 913b 16c6 c93c 46ea 0cbd
00000110: fc89 ccbc df2f 153d 68d0 873b 9ca4 7c3d
00000120: 1b68 ab3c 0c2c d1bc b374 8bbd 4182 d4bc
00000130: 8438 ffbc f6da abbc 953e 55bd d6c8 4c3d
00000140: 48fb 703b 5f0d 813d 35b1 0dbc 2426 593d
00000150: 7e7f 71bc dc02 bcbb 5404 2abd 0223 bdb8
00000160: a967 48bd 3d3b c3bb d0a5 2c3d 47d4 3fbd
00000170: 392c e7ba f030 73bd b899 5ebd ddba d0bc
00000180: 260b 9c3d 067d c63a 0cfa 203b b599 f0bc
00000190: cbdd 07bc 70ef 87bd d905 54bd 1d98 fabc
000001a0: 1b7f a13c 5859 473d 8616 073d 7ac2 d2bb
000001b0: be36 5fbc b2ec 9a3b fa48 fc3b fa78 f5bc
000001c0: e1bd adbb 7118 7abd 9da5 973d 246a 88bb
000001d0: 9116 8cbc 6ed5 983a f39d 16bd b0a3 403b
000001e0: 3722 653c f676 9fbc 99c8 d5b8 ad84 0f3d
000001f0: 58b9 3bbd 2137 523d a2b1 69ba e25d d1bc
